<?xml version="1.0"?>
<net name="torch_jit" version="11">
	<layers>
		<layer id="0" name="images" type="Parameter" version="opset1">
			<data shape="?,3,?,?" element_type="f32" />
			<output>
				<port id="0" precision="FP32" names="images">
					<dim>-1</dim>
					<dim>3</dim>
					<dim>-1</dim>
					<dim>-1</dim>
				</port>
			</output>
		</layer>
		<layer id="1" name="/model.22/Constant_860915658" type="Const" version="opset1">
			<data element_type="f32" shape="" offset="0" size="4" />
			<output>
				<port id="0" precision="FP32" names="/model.22/Constant_8_output_0" />
			</output>
		</layer>
		<layer id="2" name="2766277014248" type="Const" version="opset1">
			<data element_type="f32" shape="1, 1, 1, 1" offset="0" size="4" />
			<output>
				<port id="0" precision="FP32">
					<dim>1</dim>
					<dim>1</dim>
					<dim>1</dim>
					<dim>1</dim>
				</port>
			</output>
		</layer>
		<layer id="3" name="2767277114536" type="Const" version="opset1">
			<data element_type="f32" shape="1, 1, 1, 1" offset="4" size="4" />
			<output>
				<port id="0" precision="FP32">
					<dim>1</dim>
					<dim>1</dim>
					<dim>1</dim>
					<dim>1</dim>
				</port>
			</output>
		</layer>
		<layer id="4" name="2768277214182" type="Const" version="opset1">
			<data element_type="f32" shape="1, 1, 1, 1" offset="0" size="4" />
			<output>
				<port id="0" precision="FP32">
					<dim>1</dim>
					<dim>1</dim>
					<dim>1</dim>
					<dim>1</dim>
				</port>
			</output>
		</layer>
		<layer id="5" name="2769277314176" type="Const" version="opset1">
			<data element_type="f32" shape="1, 1, 1, 1" offset="4" size="4" />
			<output>
				<port id="0" precision="FP32">
					<dim>1</dim>
					<dim>1</dim>
					<dim>1</dim>
					<dim>1</dim>
				</port>
			</output>
		</layer>
		<layer id="6" name="/model.0/conv/Conv/WithoutBiases/fq_input_0" type="FakeQuantize" version="opset1">
			<data levels="256" auto_broadcast="numpy" />
			<input>
				<port id="0" precision="FP32">
					<dim>-1</dim>
					<dim>3</dim>
					<dim>-1</dim>
					<dim>-1</dim>
				</port>
				<port id="1" precision="FP32">
					<dim>1</dim>
					<dim>1</dim>
					<dim>1</dim>
					<dim>1</dim>
				</port>
				<port id="2" precision="FP32">
					<dim>1</dim>
					<dim>1</dim>
					<dim>1</dim>
					<dim>1</dim>
				</port>
				<port id="3" precision="FP32">
					<dim>1</dim>
					<dim>1</dim>
					<dim>1</dim>
					<dim>1</dim>
				</port>
				<port id="4" precision="FP32">
					<dim>1</dim>
					<dim>1</dim>
					<dim>1</dim>
					<dim>1</dim>
				</port>
			</input>
			<output>
				<port id="5" precision="FP32">
					<dim>-1</dim>
					<dim>3</dim>
					<dim>-1</dim>
					<dim>-1</dim>
				</port>
			</output>
		</layer>
		<layer id="7" name="model.0.conv.weight6108306/quantized1049214413" type="Const" version="opset1">
			<data element_type="i8" shape="16, 3, 3, 3" offset="8" size="432" />
			<output>
				<port id="0" precision="I8">
					<dim>16</dim>
					<dim>3</dim>
					<dim>3</dim>
					<dim>3</dim>
				</port>
			</output>
		</layer>
		<layer id="8" name="model.0.conv.weight6108306/quantized/to_f32" type="Convert" version="opset1">
			<data destination_type="f32" />
			<input>
				<port id="0" precision="I8">
					<dim>16</dim>
					<dim>3</dim>
					<dim>3</dim>
					<dim>3</dim>
				</port>
			</input>
			<output>
				<port id="1" precision="FP32">
					<dim>16</dim>
					<dim>3</dim>
					<dim>3</dim>
					<dim>3</dim>
				</port>
			</output>
		</layer>
		<layer id="9" name="/model.0/conv/Conv/WithoutBiases/fq_weights_1/scale1050014482" type="Const" version="opset1">
			<data element_type="f32" shape="16, 1, 1, 1" offset="440" size="64" />
			<output>
				<port id="0" precision="FP32">
					<dim>16</dim>
					<dim>1</dim>
					<dim>1</dim>
					<dim>1</dim>
				</port>
			</output>
		</layer>
		<layer id="10" name="/model.0/conv/Conv/WithoutBiases/fq_weights_1/mulpiply_by_scale" type="Multiply" version="opset1">
			<data auto_broadcast="numpy" />
			<input>
				<port id="0" precision="FP32">
					<dim>16</dim>
					<dim>3</dim>
					<dim>3</dim>
					<dim>3</dim>
				</port>
				<port id="1" precision="FP32">
					<dim>16</dim>
					<dim>1</dim>
					<dim>1</dim>
					<dim>1</dim>
				</port>
			</input>
			<output>
				<port id="2" precision="FP32">
					<dim>16</dim>
					<dim>3</dim>
					<dim>3</dim>
					<dim>3</dim>
				</port>
			</output>
		</layer>
		<layer id="11" name="/model.0/conv/Conv/WithoutBiases" type="Convolution" version="opset1">
			<data strides="2, 2" dilations="1, 1" pads_begin="1, 1" pads_end="1, 1" auto_pad="explicit" />
			<input>
				<port id="0" precision="FP32">
					<dim>-1</dim>
					<dim>3</dim>
					<dim>-1</dim>
					<dim>-1</dim>
				</port>
				<port id="1" precision="FP32">
					<dim>16</dim>
					<dim>3</dim>
					<dim>3</dim>
					<dim>3</dim>
				</port>
			</input>
			<output>
				<port id="2" precision="FP32">
					<dim>-1</dim>
					<dim>16</dim>
					<dim>-1</dim>
					<dim>-1</dim>
				</port>
			</output>
		</layer>
		<layer id="12" name="Reshape_8132461215052" type="Const" version="opset1">
			<data element_type="f32" shape="1, 16, 1, 1" offset="504" size="64" />
			<output>
				<port id="0" precision="FP32">
					<dim>1</dim>
					<dim>16</dim>
					<dim>1</dim>
					<dim>1</dim>
				</port>
			</output>
		</layer>
		<layer id="13" name="/model.0/conv/Conv" type="Add" version="opset1">
			<data auto_broadcast="numpy" />
			<input>
				<port id="0" precision="FP32">
					<dim>-1</dim>
					<dim>16</dim>
					<dim>-1</dim>
					<dim>-1</dim>
				</port>
				<port id="1" precision="FP32">
					<dim>1</dim>
					<dim>16</dim>
					<dim>1</dim>
					<dim>1</dim>
				</port>
			</input>
			<output>
				<port id="2" precision="FP32" names="/model.0/conv/Conv_output_0">
					<dim>-1</dim>
					<dim>16</dim>
					<dim>-1</dim>
					<dim>-1</dim>
				</port>
			</output>
		</layer>
		<layer id="14" name="/model.0/act/Mul" type="Swish" version="opset4">
			<input>
				<port id="0" precision="FP32">
					<dim>-1</dim>
					<dim>16</dim>
					<dim>-1</dim>
					<dim>-1</dim>
				</port>
			</input>
			<output>
				<port id="1" precision="FP32" names="/model.0/act/Mul_output_0">
					<dim>-1</dim>
					<dim>16</dim>
					<dim>-1</dim>
					<dim>-1</dim>
				</port>
			</output>
		</layer>
		<layer id="15" name="2316232014524" type="Const" version="opset1">
			<data element_type="f32" shape="1, 1, 1, 1" offset="568" size="4" />
			<output>
				<port id="0" precision="FP32">
					<dim>1</dim>
					<dim>1</dim>
					<dim>1</dim>
					<dim>1</dim>
				</port>
			</output>
		</layer>
		<layer id="16" name="2317232114923" type="Const" version="opset1">
			<data element_type="f32" shape="1, 1, 1, 1" offset="572" size="4" />
			<output>
				<port id="0" precision="FP32">
					<dim>1</dim>
					<dim>1</dim>
					<dim>1</dim>
					<dim>1</dim>
				</port>
			</output>
		</layer>
		<layer id="17" name="2318232215769" type="Const" version="opset1">
			<data element_type="f32" shape="1, 1, 1, 1" offset="568" size="4" />
			<output>
				<port id="0" precision="FP32">
					<dim>1</dim>
					<dim>1</dim>
					<dim>1</dim>
					<dim>1</dim>
				</port>
			</output>
		</layer>
		<layer id="18" name="2319232314308" type="Const" version="opset1">
			<data element_type="f32" shape="1, 1, 1, 1" offset="572" size="4" />
			<output>
				<port id="0" precision="FP32">
					<dim>1</dim>
					<dim>1</dim>
					<dim>1</dim>
					<dim>1</dim>
				</port>
			</output>
		</layer>
		<layer id="19" name="/model.1/conv/Conv/WithoutBiases/fq_input_0" type="FakeQuantize" version="opset1">
			<data levels="256" auto_broadcast="numpy" />
			<input>
				<port id="0" precision="FP32">
					<dim>-1</dim>
					<dim>16</dim>
					<dim>-1</dim>
					<dim>-1</dim>
				</port>
				<port id="1" precision="FP32">
					<dim>1</dim>
					<dim>1</dim>
					<dim>1</dim>
					<dim>1</dim>
				</port>
				<port id="2" precision="FP32">
					<dim>1</dim>
					<dim>1</dim>
					<dim>1</dim>
					<dim>1</dim>
				</port>
				<port id="3" precision="FP32">
					<dim>1</dim>
					<dim>1</dim>
					<dim>1</dim>
					<dim>1</dim>
				</port>
				<port id="4" precision="FP32">
					<dim>1</dim>
					<dim>1</dim>
					<dim>1</dim>
					<dim>1</dim>
				</port>
			</input>
			<output>
				<port id="5" precision="FP32">
					<dim>-1</dim>
					<dim>16</dim>
					<dim>-1</dim>
					<dim>-1</dim>
				</port>
			</output>
		</layer>
		<layer id="20" name="model.1.conv.weight6158308/quantized962215256" type="Const" version="opset1">
			<data element_type="i8" shape="32, 16, 3, 3" offset="576" size="4608" />
			<output>
				<port id="0" precision="I8">
					<dim>32</dim>
					<dim>16</dim>
					<dim>3</dim>
					<dim>3</dim>
				</port>
			</output>
		</layer>
		<layer id="21" name="model.1.conv.weight6158308/quantized/to_f32" type="Convert" version="opset1">
			<data destination_type="f32" />
			<input>
				<port id="0" precision="I8">
					<dim>32</dim>
					<dim>16</dim>
					<dim>3</dim>
					<dim>3</dim>
				</port>
			</input>
			<output>
				<port id="1" precision="FP32">
					<dim>32</dim>
					<dim>16</dim>
					<dim>3</dim>
					<dim>3</dim>
				</port>
			</output>
		</layer>
		<layer id="22" name="/model.1/conv/Conv/WithoutBiases/fq_weights_1/scale963015400" type="Const" version="opset1">
			<data element_type="f32" shape="32, 1, 1, 1" offset="5184" size="128" />
			<output>
				<port id="0" precision="FP32">
					<dim>32</dim>
					<dim>1</dim>
					<dim>1</dim>
					<dim>1</dim>
				</port>
			</output>
		</layer>
		<layer id="23" name="/model.1/conv/Conv/WithoutBiases/fq_weights_1/mulpiply_by_scale" type="Multiply" version="opset1">
			<data auto_broadcast="numpy" />
			<input>
				<port id="0" precision="FP32">
					<dim>32</dim>
					<dim>16</dim>
					<dim>3</dim>
					<dim>3</dim>
				</port>
				<port id="1" precision="FP32">
					<dim>32</dim>
					<dim>1</dim>
					<dim>1</dim>
					<dim>1</dim>
				</port>
			</input>
			<output>
				<port id="2" precision="FP32">
					<dim>32</dim>
					<dim>16</dim>
					<dim>3</dim>
					<dim>3</dim>
				</port>
			</output>
		</layer>
		<layer id="24" name="/model.1/conv/Conv/WithoutBiases" type="Convolution" version="opset1">
			<data strides="2, 2" dilations="1, 1" pads_begin="1, 1" pads_end="1, 1" auto_pad="explicit" />
			<input>
				<port id="0" precision="FP32">
					<dim>-1</dim>
					<dim>16</dim>
					<dim>-1</dim>
					<dim>-1</dim>
				</port>
				<port id="1" precision="FP32">
					<dim>32</dim>
					<dim>16</dim>
					<dim>3</dim>
					<dim>3</dim>
				</port>
			</input>
			<output>
				<port id="2" precision="FP32">
					<dim>-1</dim>
					<dim>32</dim>
					<dim>-1</dim>
					<dim>-1</dim>
				</port>
			</output>
		</layer>
		<layer id="25" name="Reshape_8137461714047" type="Const" version="opset1">
			<data element_type="f32" shape="1, 32, 1, 1" offset="5312" size="128" />
			<output>
				<port id="0" precision="FP32">
					<dim>1</dim>
					<dim>32</dim>
					<dim>1</dim>
					<dim>1</dim>
				</port>
			</output>
		</layer>
		<layer id="26" name="/model.1/conv/Conv" type="Add" version="opset1">
			<data auto_broadcast="numpy" />
			<input>
				<port id="0" precision="FP32">
					<dim>-1</dim>
					<dim>32</dim>
					<dim>-1</dim>
					<dim>-1</dim>
				</port>
				<port id="1" precision="FP32">
					<dim>1</dim>
					<dim>32</dim>
					<dim>1</dim>
					<dim>1</dim>
				</port>
			</input>
			<output>
				<port id="2" precision="FP32" names="/model.1/conv/Conv_output_0">
					<dim>-1</dim>
					<dim>32</dim>
					<dim>-1</dim>
					<dim>-1</dim>
				</port>
			</output>
		</layer>
		<layer id="27" name="/model.1/act/Mul" type="Swish" version="opset4">
			<input>
				<port id="0" precision="FP32">
					<dim>-1</dim>
					<dim>32</dim>
					<dim>-1</dim>
					<dim>-1</dim>
				</port>
			</input>
			<output>
				<port id="1" precision="FP32" names="/model.1/act/Mul_output_0">
					<dim>-1</dim>
					<dim>32</dim>
					<dim>-1</dim>
					<dim>-1</dim>
				</port>
			</output>
		</layer>
		<layer id="28" name="3376338014284" type="Const" version="opset1">
			<data element_type="f32" shape="1, 1, 1, 1" offset="5440" size="4" />
			<output>
				<port id="0" precision="FP32">
					<dim>1</dim>
					<dim>1</dim>
					<dim>1</dim>
					<dim>1</dim>
				</port>
			</output>
		</layer>
		<layer id="29" name="3377338114140" type="Const" version="opset1">
			<data element_type="f32" shape="1, 1, 1, 1" offset="5444" size="4" />
			<output>
				<port id="0" precision="FP32">
					<dim>1</dim>
					<dim>1</dim>
					<dim>1</dim>
					<dim>1</dim>
				</port>
			</output>
		</layer>
		<layer id="30" name="3378338215595" type="Const" version="opset1">
			<data element_type="f32" shape="1, 1, 1, 1" offset="5440" size="4" />
			<output>
				<port id="0" precision="FP32">
					<dim>1</dim>
					<dim>1</dim>
					<dim>1</dim>
					<dim>1</dim>
				</port>
			</output>
		</layer>
		<layer id="31" name="3379338314299" type="Const" version="opset1">
			<data element_type="f32" shape="1, 1, 1, 1" offset="5444" size="4" />
			<output>
				<port id="0" precision="FP32">
					<dim>1</dim>
					<dim>1</dim>
					<dim>1</dim>
					<dim>1</dim>
				</port>
			</output>
		</layer>
		<layer id="32" name="/model.2/cv1/conv/Conv/WithoutBiases/fq_input_0" type="FakeQuantize" version="opset1">
			<data levels="256" auto_broadcast="numpy" />
			<input>
				<port id="0" precision="FP32">
					<dim>-1</dim>
					<dim>32</dim>
					<dim>-1</dim>
					<dim>-1</dim>
				</port>
				<port id="1" precision="FP32">
					<dim>1</dim>
					<dim>1</dim>
					<dim>1</dim>
					<dim>1</dim>
				</port>
				<port id="2" precision="FP32">
					<dim>1</dim>
					<dim>1</dim>
					<dim>1</dim>
					<dim>1</dim>
				</port>
				<port id="3" precision="FP32">
					<dim>1</dim>
					<dim>1</dim>
					<dim>1</dim>
					<dim>1</dim>
				</port>
				<port id="4" precision="FP32">
					<dim>1</dim>
					<dim>1</dim>
					<dim>1</dim>
					<dim>1</dim>
				</port>
			</input>
			<output>
				<port id="5" precision="FP32">
					<dim>-1</dim>
					<dim>32</dim>
					<dim>-1</dim>
					<dim>-1</dim>
				</port>
			</output>
		</layer>
		<layer id="33" name="model.2.cv1.conv.weight6208310/quantized1088214722" type="Const" version="opset1">
			<data element_type="i8" shape="32, 32, 1, 1" offset="5448" size="1024" />
			<output>
				<port id="0" precision="I8">
					<dim>32</dim>
					<dim>32</dim>
					<dim>1</dim>
					<dim>1</dim>
				</port>
			</output>
		</layer>
		<layer id="34" name="model.2.cv1.conv.weight6208310/quantized/to_f32" type="Convert" version="opset1">
			<data destination_type="f32" />
			<input>
				<port id="0" precision="I8">
					<dim>32</dim>
					<dim>32</dim>
					<dim>1</dim>
					<dim>1</dim>
				</port>
			</input>
			<output>
				<port id="1" precision="FP32">
					<dim>32</dim>
					<dim>32</dim>
					<dim>1</dim>
					<dim>1</dim>
				</port>
			</output>
		</layer>
		<layer id="35" name="/model.2/cv1/conv/Conv/WithoutBiases/fq_weights_1/scale1089015478" type="Const" version="opset1">
			<data element_type="f32" shape="32, 1, 1, 1" offset="6472" size="128" />
			<output>
				<port id="0" precision="FP32">
					<dim>32</dim>
					<dim>1</dim>
					<dim>1</dim>
					<dim>1</dim>
				</port>
			</output>
		</layer>
		<layer id="36" name="/model.2/cv1/conv/Conv/WithoutBiases/fq_weights_1/mulpiply_by_scale" type="Multiply" version="opset1">
			<data auto_broadcast="numpy" />
			<input>
				<port id="0" precision="FP32">
					<dim>32</dim>
					<dim>32</dim>
					<dim>1</dim>
					<dim>1</dim>
				</port>
				<port id="1" precision="FP32">
					<dim>32</dim>
					<dim>1</dim>
					<dim>1</dim>
					<dim>1</dim>
				</port>
			</input>
			<output>
				<port id="2" precision="FP32">
					<dim>32</dim>
					<dim>32</dim>
					<dim>1</dim>
					<dim>1</dim>
				</port>
			</output>
		</layer>
		<layer id="37" name="/model.2/cv1/conv/Conv/WithoutBiases" type="Convolution" version="opset1">
			<data strides="1, 1" dilations="1, 1" pads_begin="0, 0" pads_end="0, 0" auto_pad="explicit" />
			<input>
				<port id="0" precision="FP32">
					<dim>-1</dim>
					<dim>32</dim>
					<dim>-1</dim>
					<dim>-1</dim>
				</port>
				<port id="1" precision="FP32">
					<dim>32</dim>
					<dim>32</dim>
					<dim>1</dim>
					<dim>1</dim>
				</port>
			</input>
			<output>
				<port id="2" precision="FP32">
					<dim>-1</dim>
					<dim>32</dim>
					<dim>-1</dim>
					<dim>-1</dim>
				</port>
			</output>
		</layer>
		<layer id="38" name="Reshape_8142462214455" type="Const" version="opset1">
			<data element_type="f32" shape="1, 32, 1, 1" offset="6600" size="128" />
			<output>
				<port id="0" precision="FP32">
					<dim>1</dim>
					<dim>32</dim>
					<dim>1</dim>
					<dim>1</dim>
				</port>
			</output>
		</layer>
		<layer id="39" name="/model.2/cv1/conv/Conv" type="Add" version="opset1">
			<data auto_broadcast="numpy" />
			<input>
				<port id="0" precision="FP32">
					<dim>-1</dim>
					<dim>32</dim>
					<dim>-1</dim>
					<dim>-1</dim>
				</port>
				<port id="1" precision="FP32">
					<dim>1</dim>
					<dim>32</dim>
					<dim>1</dim>
					<dim>1</dim>
				</port>
			</input>
			<output>
				<port id="2" precision="FP32" names="/model.2/cv1/conv/Conv_output_0">
					<dim>-1</dim>
					<dim>32</dim>
					<dim>-1</dim>
					<dim>-1</dim>
				</port>
			</output>
		</layer>
		<layer id="40" name="/model.2/cv1/act/Mul" type="Swish" version="opset4">
			<input>
				<port id="0" precision="FP32">
					<dim>-1</dim>
					<dim>32</dim>
					<dim>-1</dim>
					<dim>-1</dim>
				</port>
			</input>
			<output>
				<port id="1" precision="FP32" names="/model.2/cv1/act/Mul_output_0">
					<dim>-1</dim>
					<dim>32</dim>
					<dim>-1</dim>
					<dim>-1</dim>
				</port>
			</output>
		</layer>
		<layer id="41" name="4720472414692" type="Const" version="opset1">
			<data element_type="f32" shape="1, 1, 1, 1" offset="6728" size="4" />
			<output>
				<port id="0" precision="FP32">
					<dim>1</dim>
					<dim>1</dim>
					<dim>1</dim>
					<dim>1</dim>
				</port>
			</output>
		</layer>
		<layer id="42" name="4721472514218" type="Const" version="opset1">
			<data element_type="f32" shape="1, 1, 1, 1" offset="6732" size="4" />
			<output>
				<port id="0" precision="FP32">
					<dim>1</dim>
					<dim>1</dim>
					<dim>1</dim>
					<dim>1</dim>
				</port>
			</output>
		</layer>
		<layer id="43" name="4722472615145" type="Const" version="opset1">
			<data element_type="f32" shape="1, 1, 1, 1" offset="6728" size="4" />
			<output>
				<port id="0" precision="FP32">
					<dim>1</dim>
					<dim>1</dim>
					<dim>1</dim>
					<dim>1</dim>
				</port>
			</output>
		</layer>
		<layer id="44" name="4723472715016" type="Const" version="opset1">
			<data element_type="f32" shape="1, 1, 1, 1" offset="6732" size="4" />
			<output>
				<port id="0" precision="FP32">
					<dim>1</dim>
					<dim>1</dim>
					<dim>1</dim>
					<dim>1</dim>
				</port>
			</output>
		</layer>
		<layer id="45" name="/model.2/Split/fq_input_0" type="FakeQuantize" version="opset1">
			<data levels="256" auto_broadcast="numpy" />
			<input>
				<port id="0" precision="FP32">
					<dim>-1</dim>
					<dim>32</dim>
					<dim>-1</dim>
					<dim>-1</dim>
				</port>
				<port id="1" precision="FP32">
					<dim>1</dim>
					<dim>1</dim>
					<dim>1</dim>
					<dim>1</dim>
				</port>
				<port id="2" precision="FP32">
					<dim>1</dim>
					<dim>1</dim>
					<dim>1</dim>
					<dim>1</dim>
				</port>
				<port id="3" precision="FP32">
					<dim>1</dim>
					<dim>1</dim>
					<dim>1</dim>
					<dim>1</dim>
				</port>
				<port id="4" precision="FP32">
					<dim>1</dim>
					<dim>1</dim>
					<dim>1</dim>
					<dim>1</dim>
				</port>
			</input>
			<output>
				<port id="5" precision="FP32">
					<dim>-1</dim>
					<dim>32</dim>
					<dim>-1</dim>
					<dim>-1</dim>
				</port>
			</output>
		</layer>
		<layer id="46" name="Constant_8145562515091" type="Const" version="opset1">
			<data element_type="i64" shape="" offset="6736" size="8" />
			<output>
				<port id="0" precision="I64" />
			</output>
		</layer>
		<layer id="47" name="Constant_962615265" type="Const" version="opset1">
			<data element_type="i64" shape="2" offset="6744" size="16" />
			<output>
				<port id="0" precision="I64" names="onnx::Split_141">
					<dim>2</dim>
				</port>
			</output>
		</layer>
		<layer id="48" name="/model.2/Split" type="VariadicSplit" version="opset1">
			<input>
				<port id="0" precision="FP32">
					<dim>-1</dim>
					<dim>32</dim>
					<dim>-1</dim>
					<dim>-1</dim>
				</port>
				<port id="1" precision="I64" />
				<port id="2" precision="I64">
					<dim>2</dim>
				</port>
			</input>
			<output>
				<port id="3" precision="FP32" names="/model.2/Split_output_0">
					<dim>-1</dim>
					<dim>16</dim>
					<dim>-1</dim>
					<dim>-1</dim>
				</port>
				<port id="4" precision="FP32" names="/model.2/Split_output_1">
					<dim>-1</dim>
					<dim>16</dim>
					<dim>-1</dim>
					<dim>-1</dim>
				</port>
			</output>
		</layer>
		<layer id="49" name="model.2.m.0.cv1.conv.weight6298314/quantized1082214920" type="Const" version="opset1">
			<data element_type="i8" shape="16, 16, 3, 3" offset="6760" size="2304" />
			<output>
				<port id="0" precision="I8">
					<dim>16</dim>
					<dim>16</dim>
					<dim>3</dim>
					<dim>3</dim>
				</port>
			</output>
		</layer>
		<layer id="50" name="model.2.m.0.cv1.conv.weight6298314/quantized/to_f32" type="Convert" version="opset1">
			<data destination_type="f32" />
			<input>
				<port id="0" precision="I8">
					<dim>16</dim>
					<dim>16</dim>
					<dim>3</dim>
					<dim>3</dim>
				</port>
			</input>
			<output>
				<port id="1" precision="FP32">
					<dim>16</dim>
					<dim>16</dim>
					<dim>3</dim>
					<dim>3</dim>
				</port>
			</output>
		</layer>
		<layer id="51" name="/model.2/m.0/cv1/conv/Conv/WithoutBiases/fq_weights_1/scale1083015217" type="Const" version="opset1">
			<data element_type="f32" shape="16, 1, 1, 1" offset="9064" size="64" />
			<output>
				<port id="0" precision="FP32">
					<dim>16</dim>
					<dim>1</dim>
					<dim>1</dim>
					<dim>1</dim>
				</port>
			</output>
		</layer>
		<layer id="52" name="/model.2/m.0/cv1/conv/Conv/WithoutBiases/fq_weights_1/mulpiply_by_scale" type="Multiply" version="opset1">
			<data auto_broadcast="numpy" />
			<input>
				<port id="0" precision="FP32">
					<dim>16</dim>
					<dim>16</dim>
					<dim>3</dim>
					<dim>3</dim>
				</port>
				<port id="1" precision="FP32">
					<dim>16</dim>
					<dim>1</dim>
					<dim>1</dim>
					<dim>1</dim>
				</port>
			</input>
			<output>
				<port id="2" precision="FP32">
					<dim>16</dim>
					<dim>16</dim>
					<dim>3</dim>
					<dim>3</dim>
				</port>
			</output>
		</layer>
		<layer id="53" name="/model.2/m.0/cv1/conv/Conv/WithoutBiases" type="Convolution" version="opset1">
			<data strides="1, 1" dilations="1, 1" pads_begin="1, 1" pads_end="1, 1" auto_pad="explicit" />
			<input>
				<port id="0" precision="FP32">
					<dim>-1</dim>
					<dim>16</dim>
					<dim>-1</dim>
					<dim>-1</dim>
				</port>
				<port id="1" precision="FP32">
					<dim>16</dim>
					<dim>16</dim>
					<dim>3</dim>
					<dim>3</dim>
				</port>
			</input>
			<output>
				<port id="2" precision="FP32">
					<dim>-1</dim>
					<dim>16</dim>
					<dim>-1</dim>
					<dim>-1</dim>
				</port>
			</output>
		</layer>
		<layer id="54" name="Reshape_8147763114095" type="Const" version="opset1">
			<data element_type="f32" shape="1, 16, 1, 1" offset="9128" size="64" />
			<output>
				<port id="0" precision="FP32">
					<dim>1</dim>
					<dim>16</dim>
					<dim>1</dim>
					<dim>1</dim>
				</port>
			</output>
		</layer>
		<layer id="55" name="/model.2/m.0/cv1/conv/Conv" type="Add" version="opset1">
			<data auto_broadcast="numpy" />
			<input>
				<port id="0" precision="FP32">
					<dim>-1</dim>
					<dim>16</dim>
					<dim>-1</dim>
					<dim>-1</dim>
				</port>
				<port id="1" precision="FP32">
					<dim>1</dim>
					<dim>16</dim>
					<dim>1</dim>
					<dim>1</dim>
				</port>
			</input>
			<output>
				<port id="2" precision="FP32" names="/model.2/m.0/cv1/conv/Conv_output_0">
					<dim>-1</dim>
					<dim>16</dim>
					<dim>-1</dim>
					<dim>-1</dim>
				</port>
			</output>
		</layer>
		<layer id="56" name="/model.2/m.0/cv1/act/Mul" type="Swish" version="opset4">
			<input>
				<port id="0" precision="FP32">
					<dim>-1</dim>
					<dim>16</dim>
					<dim>-1</dim>
					<dim>-1</dim>
				</port>
			</input>
			<output>
				<port id="1" precision="FP32" names="/model.2/m.0/cv1/act/Mul_output_0">
					<dim>-1</dim>
					<dim>16</dim>
					<dim>-1</dim>
					<dim>-1</dim>
				</port>
			</output>
		</layer>
		<layer id="57" name="3146315015394" type="Const" version="opset1">
			<data element_type="f32" shape="1, 1, 1, 1" offset="9192" size="4" />
			<output>
				<port id="0" precision="FP32">
					<dim>1</dim>
					<dim>1</dim>
					<dim>1</dim>
					<dim>1</dim>
				</port>
			</output>
		</layer>
		<layer id="58" name="3147315114671" type="Const" version="opset1">
			<data element_type="f32" shape="1, 1, 1, 1" offset="9196" size="4" />
			<output>
				<port id="0" precision="FP32">
					<dim>1</dim>
					<dim>1</dim>
					<dim>1</dim>
					<dim>1</dim>
				</port>
			</output>
		</layer>
		<layer id="59" name="3148315215583" type="Const" version="opset1">
			<data element_type="f32" shape="1, 1, 1, 1" offset="9192" size="4" />
			<output>
				<port id="0" precision="FP32">
					<dim>1</dim>
					<dim>1</dim>
					<dim>1</dim>
					<dim>1</dim>
				</port>
			</output>
		</layer>
		<layer id="60" name="3149315315025" type="Const" version="opset1">
			<data element_type="f32" shape="1, 1, 1, 1" offset="9196" size="4" />
			<output>
				<port id="0" precision="FP32">
					<dim>1</dim>
					<dim>1</dim>
					<dim>1</dim>
					<dim>1</dim>
				</port>
			</output>
		</layer>
		<layer id="61" name="/model.2/m.0/cv2/conv/Conv/WithoutBiases/fq_input_0" type="FakeQuantize" version="opset1">
			<data levels="256" auto_broadcast="numpy" />
			<input>
				<port id="0" precision="FP32">
					<dim>-1</dim>
					<dim>16</dim>
					<dim>-1</dim>
					<dim>-1</dim>
				</port>
				<port id="1" precision="FP32">
					<dim>1</dim>
					<dim>1</dim>
					<dim>1</dim>
					<dim>1</dim>
				</port>
				<port id="2" precision="FP32">
					<dim>1</dim>
					<dim>1</dim>
					<dim>1</dim>
					<dim>1</dim>
				</port>
				<port id="3" precision="FP32">
					<dim>1</dim>
					<dim>1</dim>
					<dim>1</dim>
					<dim>1</dim>
				</port>
				<port id="4" precision="FP32">
					<dim>1</dim>
					<dim>1</dim>
					<dim>1</dim>
					<dim>1</dim>
				</port>
			</input>
			<output>
				<port id="5" precision="FP32">
					<dim>-1</dim>
					<dim>16</dim>
					<dim>-1</dim>
					<dim>-1</dim>
				</port>
			</output>
		</layer>
		<layer id="62" name="model.2.m.0.cv2.conv.weight6348316/quantized1091214074" type="Const" version="opset1">
			<data element_type="i8" shape="16, 16, 3, 3" offset="9200" size="2304" />
			<output>
				<port id="0" precision="I8">
					<dim>16</dim>
					<dim>16</dim>
					<dim>3</dim>
					<dim>3</dim>
				</port>
			</output>
		</layer>
		<layer id="63" name="model.2.m.0.cv2.conv.weight6348316/quantized/to_f32" type="Convert" version="opset1">
			<data destination_type="f32" />
			<input>
				<port id="0" precision="I8">
					<dim>16</dim>
					<dim>16</dim>
					<dim>3</dim>
					<dim>3</dim>
				</port>
			</input>
			<output>
				<port id="1" precision="FP32">
					<dim>16</dim>
					<dim>16</dim>
					<dim>3</dim>
					<dim>3</dim>
				</port>
			</output>
		</layer>
		<layer id="64" name="/model.2/m.0/cv2/conv/Conv/WithoutBiases/fq_weights_1/scale1092014593" type="Const" version="opset1">
			<data element_type="f32" shape="16, 1, 1, 1" offset="11504" size="64" />
			<output>
				<port id="0" precision="FP32">
					<dim>16</dim>
					<dim>1</dim>
					<dim>1</dim>
					<dim>1</dim>
				</port>
			</output>
		</layer>
		<layer id="65" name="/model.2/m.0/cv2/conv/Conv/WithoutBiases/fq_weights_1/mulpiply_by_scale" type="Multiply" version="opset1">
			<data auto_broadcast="numpy" />
			<input>
				<port id="0" precision="FP32">
					<dim>16</dim>
					<dim>16</dim>
					<dim>3</dim>
					<dim>3</dim>
				</port>
				<port id="1" precision="FP32">
					<dim>16</dim>
					<dim>1</dim>
					<dim>1</dim>
					<dim>1</dim>
				</port>
			</input>
			<output>
				<port id="2" precision="FP32">
					<dim>16</dim>
					<dim>16</dim>
					<dim>3</dim>
					<dim>3</dim>
				</port>
			</output>
		</layer>
		<layer id="66" name="/model.2/m.0/cv2/conv/Conv/WithoutBiases" type="Convolution" version="opset1">
			<data strides="1, 1" dilations="1, 1" pads_begin="1, 1" pads_end="1, 1" auto_pad="explicit" />
			<input>
				<port id="0" precision="FP32">
					<dim>-1</dim>
					<dim>16</dim>
					<dim>-1</dim>
					<dim>-1</dim>
				</port>
				<port id="1" precision="FP32">
					<dim>16</dim>
					<dim>16</dim>
					<dim>3</dim>
					<dim>3</dim>
				</port>
			</input>
			<output>
				<port id="2" precision="FP32">
					<dim>-1</dim>
					<dim>16</dim>
					<dim>-1</dim>
					<dim>-1</dim>
				</port>
			</output>
		</layer>
		<layer id="67" name="Reshape_8152763614860" type="Const" version="opset1">
			<data element_type="f32" shape="1, 16, 1, 1" offset="11568" size="64" />
			<output>
				<port id="0" precision="FP32">
					<dim>1</dim>
					<dim>16</dim>
					<dim>1</dim>
					<dim>1</dim>
				</port>
			</output>
		</layer>
		<layer id="68" name="/model.2/m.0/cv2/conv/Conv" type="Add" version="opset1">
			<data auto_broadcast="numpy" />
			<input>
				<port id="0" precision="FP32">
					<dim>-1</dim>
					<dim>16</dim>
					<dim>-1</dim>
					<dim>-1</dim>
				</port>
				<port id="1" precision="FP32">
					<dim>1</dim>
					<dim>16</dim>
					<dim>1</dim>
					<dim>1</dim>
				</port>
			</input>
			<output>
				<port id="2" precision="FP32" names="/model.2/m.0/cv2/conv/Conv_output_0">
					<dim>-1</dim>
					<dim>16</dim>
					<dim>-1</dim>
					<dim>-1</dim>
				</port>
			</output>
		</layer>
		<layer id="69" name="/model.2/m.0/cv2/act/Mul" type="Swish" version="opset4">
			<input>
				<port id="0" precision="FP32">
					<dim>-1</dim>
					<dim>16</dim>
					<dim>-1</dim>
					<dim>-1</dim>
				</port>
			</input>
			<output>
				<port id="1" precision="FP32" names="/model.2/m.0/cv2/act/Mul_output_0">
					<dim>-1</dim>
					<dim>16</dim>
					<dim>-1</dim>
					<dim>-1</dim>
				</port>
			</output>
		</layer>
		<layer id="70" name="2756276015640" type="Const" version="opset1">
			<data element_type="f32" shape="1, 1, 1, 1" offset="11632" size="4" />
			<output>
				<port id="0" precision="FP32">
					<dim>1</dim>
					<dim>1</dim>
					<dim>1</dim>
					<dim>1</dim>
				</port>
			</output>
		</layer>
		<layer id="71" name="2757276114314" type="Const" version="opset1">
			<data element_type="f32" shape="1, 1, 1, 1" offset="11636" size="4" />
			<output>
				<port id="0" precision="FP32">
					<dim>1</dim>
					<dim>1</dim>
					<dim>1</dim>
					<dim>1</dim>
				</port>
			</output>
		</layer>
		<layer id="72" name="2758276214416" type="Const" version="opset1">
			<data element_type="f32" shape="1, 1, 1, 1" offset="11632" size="4" />
			<output>
				<port id="0" precision="FP32">
					<dim>1</dim>
					<dim>1</dim>
					<dim>1</dim>
					<dim>1</dim>
				</port>
			</output>
		</layer>
		<layer id="73" name="2759276315274" type="Const" version="opset1">
			<data element_type="f32" shape="1, 1, 1, 1" offset="11636" size="4" />
			<output>
				<port id="0" precision="FP32">
					<dim>1</dim>
					<dim>1</dim>
					<dim>1</dim>
					<dim>1</dim>
				</port>
			</output>
		</layer>
		<layer id="74" name="/model.2/m.0/Add/fq_input_1" type="FakeQuantize" version="opset1">
			<data levels="256" auto_broadcast="numpy" />
			<input>
				<port id="0" precision="FP32">
					<dim>-1</dim>
					<dim>16</dim>
					<dim>-1</dim>
					<dim>-1</dim>
				</port>
				<port id="1" precision="FP32">
					<dim>1</dim>
					<dim>1</dim>
					<dim>1</dim>
					<dim>1</dim>
				</port>
				<port id="2" precision="FP32">
					<dim>1</dim>
					<dim>1</dim>
					<dim>1</dim>
					<dim>1</dim>
				</port>
				<port id="3" precision="FP32">
					<dim>1</dim>
					<dim>1</dim>
					<dim>1</dim>
					<dim>1</dim>
				</port>
				<port id="4" precision="FP32">
					<dim>1</dim>
					<dim>1</dim>
					<dim>1</dim>
					<dim>1</dim>
				</port>
			</input>
			<output>
				<port id="5" precision="FP32">
					<dim>-1</dim>
					<dim>16</dim>
					<dim>-1</dim>
					<dim>-1</dim>
				</port>
			</output>
		</layer>
		<layer id="75" name="/model.2/m.0/Add" type="Add" version="opset1">
			<data auto_broadcast="numpy" />
			<input>
				<port id="0" precision="FP32">
					<dim>-1</dim>
					<dim>16</dim>
					<dim>-1</dim>
					<dim>-1</dim>
				</port>
				<port id="1" precision="FP32">
					<dim>-1</dim>
					<dim>16</dim>
					<dim>-1</dim>
					<dim>-1</dim>
				</port>
			</input>
			<output>
				<port id="2" precision="FP32" names="/model.2/m.0/Add_output_0">
					<dim>-1</dim>
					<dim>16</dim>
					<dim>-1</dim>
					<dim>-1</dim>
				</port>
			</output>
		</layer>
		<layer id="76" name="4710471414554" type="Const" version="opset1">
			<data element_type="f32" shape="1, 1, 1, 1" offset="6728" size="4" />
			<output>
				<port id="0" precision="FP32">
					<dim>1</dim>
					<dim>1</dim>
					<dim>1</dim>
					<dim>1</dim>
				</port>
			</output>
		</layer>
		<layer id="77" name="4711471514953" type="Const" version="opset1">
			<data element_type="f32" shape="1, 1, 1, 1" offset="6732" size="4" />
			<output>
				<port id="0" precision="FP32">
					<dim>1</dim>
					<dim>1</dim>
					<dim>1</dim>
					<dim>1</dim>
				</port>
			</output>
		</layer>
		<layer id="78" name="4712471614719" type="Const" version="opset1">
			<data element_type="f32" shape="1, 1, 1, 1" offset="6728" size="4" />
			<output>
				<port id="0" precision="FP32">
					<dim>1</dim>
					<dim>1</dim>
					<dim>1</dim>
					<dim>1</dim>
				</port>
			</output>
		</layer>
		<layer id="79" name="4713471715214" type="Const" version="opset1">
			<data element_type="f32" shape="1, 1, 1, 1" offset="6732" size="4" />
			<output>
				<port id="0" precision="FP32">
					<dim>1</dim>
					<dim>1</dim>
					<dim>1</dim>
					<dim>1</dim>
				</port>
			</output>
		</layer>
		<layer id="80" name="/model.2/Concat/fq_input_2" type="FakeQuantize" version="opset1">
			<data levels="256" auto_broadcast="numpy" />
			<input>
				<port id="0" precision="FP32">
					<dim>-1</dim>
					<dim>16</dim>
					<dim>-1</dim>
					<dim>-1</dim>
				</port>
				<port id="1" precision="FP32">
					<dim>1</dim>
					<dim>1</dim>
					<dim>1</dim>
					<dim>1</dim>
				</port>
				<port id="2" precision="FP32">
					<dim>1</dim>
					<dim>1</dim>
					<dim>1</dim>
					<dim>1</dim>
				</port>
				<port id="3" precision="FP32">
					<dim>1</dim>
					<dim>1</dim>
					<dim>1</dim>
					<dim>1</dim>
				</port>
				<port id="4" precision="FP32">
					<dim>1</dim>
					<dim>1</dim>
					<dim>1</dim>
					<dim>1</dim>
				</port>
			</input>
			<output>
				<port id="5" precision="FP32">
					<dim>-1</dim>
					<dim>16</dim>
					<dim>-1</dim>
					<dim>-1</dim>
				</port>
			</output>
		</layer>
		<layer id="81" name="/model.2/Concat" type="Concat" version="opset1">
			<data axis="1" />
			<input>
				<port id="0" precision="FP32">
					<dim>-1</dim>
					<dim>16</dim>
					<dim>-1</dim>
					<dim>-1</dim>
				</port>
				<port id="1" precision="FP32">
					<dim>-1</dim>
					<dim>16</dim>
					<dim>-1</dim>
					<dim>-1</dim>
				</port>
				<port id="2" precision="FP32">
					<dim>-1</dim>
					<dim>16</dim>
					<dim>-1</dim>
					<dim>-1</dim>
				</port>
			</input>
			<output>
				<port id="3" precision="FP32" names="/model.2/Concat_output_0">
					<dim>-1</dim>
					<dim>48</dim>
					<dim>-1</dim>
					<dim>-1</dim>
				</port>
			</output>
		</layer>
		<layer id="82" name="model.2.cv2.conv.weight6418318/quantized1079215040" type="Const" version="opset1">
			<data element_type="i8" shape="32, 48, 1, 1" offset="11640" size="1536" />
			<output>
				<port id="0" precision="I8">
					<dim>32</dim>
					<dim>48</dim>
					<dim>1</dim>
					<dim>1</dim>
				</port>
			</output>
		</layer>
		<layer id="83" name="model.2.cv2.conv.weight6418318/quantized/to_f32" type="Convert" version="opset1">
			<data destination_type="f32" />
			<input>
				<port id="0" precision="I8">
					<dim>32</dim>
					<dim>48</dim>
					<dim>1</dim>
					<dim>1</dim>
				</port>
			</input>
			<output>
				<port id="1" precision="FP32">
					<dim>32</dim>
					<dim>48</dim>
					<dim>1</dim>
					<dim>1</dim>
				</port>
			</output>
		</layer>
		<layer id="84" name="/model.2/cv2/conv/Conv/WithoutBiases/fq_weights_1/scale1080014680" type="Const" version="opset1">
			<data element_type="f32" shape="32, 1, 1, 1" offset="13176" size="128" />
			<output>
				<port id="0" precision="FP32">
					<dim>32</dim>
					<dim>1</dim>
					<dim>1</dim>
					<dim>1</dim>
				</port>
			</output>
		</layer>
		<layer id="85" name="/model.2/cv2/conv/Conv/WithoutBiases/fq_weights_1/mulpiply_by_scale" type="Multiply" version="opset1">
			<data auto_broadcast="numpy" />
			<input>
				<port id="0" precision="FP32">
					<dim>32</dim>
					<dim>48</dim>
					<dim>1</dim>
					<dim>1</dim>
				</port>
				<port id="1" precision="FP32">
					<dim>32</dim>
					<dim>1</dim>
					<dim>1</dim>
					<dim>1</dim>
				</port>
			</input>
			<output>
				<port id="2" precision="FP32">
					<dim>32</dim>
					<dim>48</dim>
					<dim>1</dim>
					<dim>1</dim>
				</port>
			</output>
		</layer>
		<layer id="86" name="/model.2/cv2/conv/Conv/WithoutBiases" type="Convolution" version="opset1">
			<data strides="1, 1" dilations="1, 1" pads_begin="0, 0" pads_end="0, 0" auto_pad="explicit" />
			<input>
				<port id="0" precision="FP32">
					<dim>-1</dim>
					<dim>48</dim>
					<dim>-1</dim>
					<dim>-1</dim>
				</port>
				<port id="1" precision="FP32">
					<dim>32</dim>
					<dim>48</dim>
					<dim>1</dim>
					<dim>1</dim>
				</port>
			</input>
			<output>
				<port id="2" precision="FP32">
					<dim>-1</dim>
					<dim>32</dim>
					<dim>-1</dim>
					<dim>-1</dim>
				</port>
			</output>
		</layer>
		<layer id="87" name="Reshape_8157964315454" type="Const" version="opset1">
			<data element_type="f32" shape="1, 32, 1, 1" offset="13304" size="128" />
			<output>
				<port id="0" precision="FP32">
					<dim>1</dim>
					<dim>32</dim>
					<dim>1</dim>
					<dim>1</dim>
				</port>
			</output>
		</layer>
		<layer id="88" name="/model.2/cv2/conv/Conv" type="Add" version="opset1">
			<data auto_broadcast="numpy" />
			<input>
				<port id="0" precision="FP32">
					<dim>-1</dim>
					<dim>32</dim>
					<dim>-1</dim>
					<dim>-1</dim>
				</port>
				<port id="1" precision="FP32">
					<dim>1</dim>
					<dim>32</dim>
					<dim>1</dim>
					<dim>1</dim>
				</port>
			</input>
			<output>
				<port id="2" precision="FP32" names="/model.2/cv2/conv/Conv_output_0">
					<dim>-1</dim>
					<dim>32</dim>
					<dim>-1</dim>
					<dim>-1</dim>
				</port>
			</output>
		</layer>
		<layer id="89" name="/model.2/cv2/act/Mul" type="Swish" version="opset4">
			<input>
				<port id="0" precision="FP32">
					<dim>-1</dim>
					<dim>32</dim>
					<dim>-1</dim>
					<dim>-1</dim>
				</port>
			</input>
			<output>
				<port id="1" precision="FP32" names="/model.2/cv2/act/Mul_output_0">
					<dim>-1</dim>
					<dim>32</dim>
					<dim>-1</dim>
					<dim>-1</dim>
				</port>
			</output>
		</layer>
		<layer id="90" name="2496250015340" type="Const" version="opset1">
			<data element_type="f32" shape="1, 1, 1, 1" offset="5440" size="4" />
			<output>
				<port id="0" precision="FP32">
					<dim>1</dim>
					<dim>1</dim>
					<dim>1</dim>
					<dim>1</dim>
				</port>
			</output>
		</layer>
		<layer id="91" name="2497250114518" type="Const" version="opset1">
			<data element_type="f32" shape="1, 1, 1, 1" offset="13432" size="4" />
			<output>
				<port id="0" precision="FP32">
					<dim>1</dim>
					<dim>1</dim>
					<dim>1</dim>
					<dim>1</dim>
				</port>
			</output>
		</layer>
		<layer id="92" name="2498250214539" type="Const" version="opset1">
			<data element_type="f32" shape="1, 1, 1, 1" offset="5440" size="4" />
			<output>
				<port id="0" precision="FP32">
					<dim>1</dim>
					<dim>1</dim>
					<dim>1</dim>
					<dim>1</dim>
				</port>
			</output>
		</layer>
		<layer id="93" name="2499250315304" type="Const" version="opset1">
			<data element_type="f32" shape="1, 1, 1, 1" offset="13432" size="4" />
			<output>
				<port id="0" precision="FP32">
					<dim>1</dim>
					<dim>1</dim>
					<dim>1</dim>
					<dim>1</dim>
				</port>
			</output>
		</layer>
		<layer id="94" name="/model.3/conv/Conv/WithoutBiases/fq_input_0" type="FakeQuantize" version="opset1">
			<data levels="256" auto_broadcast="numpy" />
			<input>
				<port id="0" precision="FP32">
					<dim>-1</dim>
					<dim>32</dim>
					<dim>-1</dim>
					<dim>-1</dim>
				</port>
				<port id="1" precision="FP32">
					<dim>1</dim>
					<dim>1</dim>
					<dim>1</dim>
					<dim>1</dim>
				</port>
				<port id="2" precision="FP32">
					<dim>1</dim>
					<dim>1</dim>
					<dim>1</dim>
					<dim>1</dim>
				</port>
				<port id="3" precision="FP32">
					<dim>1</dim>
					<dim>1</dim>
					<dim>1</dim>
					<dim>1</dim>
				</port>
				<port id="4" precision="FP32">
					<dim>1</dim>
					<dim>1</dim>
					<dim>1</dim>
					<dim>1</dim>
				</port>
			</input>
			<output>
				<port id="5" precision="FP32">
					<dim>-1</dim>
					<dim>32</dim>
					<dim>-1</dim>
					<dim>-1</dim>
				</port>
			</output>
		</layer>
		<layer id="95" name="model.3.conv.weight6468320/quantized998214992" type="Const" version="opset1">
			<data element_type="i8" shape="64, 32, 3, 3" offset="13436" size="18432" />
			<output>
				<port id="0" precision="I8">
					<dim>64</dim>
					<dim>32</dim>
					<dim>3</dim>
					<dim>3</dim>
				</port>
			</output>
		</layer>
		<layer id="96" name="model.3.conv.weight6468320/quantized/to_f32" type="Convert" version="opset1">
			<data destination_type="f32" />
			<input>
				<port id="0" precision="I8">
					<dim>64</dim>
					<dim>32</dim>
					<dim>3</dim>
					<dim>3</dim>
				</port>
			</input>
			<output>
				<port id="1" precision="FP32">
					<dim>64</dim>
					<dim>32</dim>
					<dim>3</dim>
					<dim>3</dim>
				</port>
			</output>
		</layer>
		<layer id="97" name="/model.3/conv/Conv/WithoutBiases/fq_weights_1/scale999014365" type="Const" version="opset1">
			<data element_type="f32" shape="64, 1, 1, 1" offset="31868" size="256" />
			<output>
				<port id="0" precision="FP32">
					<dim>64</dim>
					<dim>1</dim>
					<dim>1</dim>
					<dim>1</dim>
				</port>
			</output>
		</layer>
		<layer id="98" name="/model.3/conv/Conv/WithoutBiases/fq_weights_1/mulpiply_by_scale" type="Multiply" version="opset1">
			<data auto_broadcast="numpy" />
			<input>
				<port id="0" precision="FP32">
					<dim>64</dim>
					<dim>32</dim>
					<dim>3</dim>
					<dim>3</dim>
				</port>
				<port id="1" precision="FP32">
					<dim>64</dim>
					<dim>1</dim>
					<dim>1</dim>
					<dim>1</dim>
				</port>
			</input>
			<output>
				<port id="2" precision="FP32">
					<dim>64</dim>
					<dim>32</dim>
					<dim>3</dim>
					<dim>3</dim>
				</port>
			</output>
		</layer>
		<layer id="99" name="/model.3/conv/Conv/WithoutBiases" type="Convolution" version="opset1">
			<data strides="2, 2" dilations="1, 1" pads_begin="1, 1" pads_end="1, 1" auto_pad="explicit" />
			<input>
				<port id="0" precision="FP32">
					<dim>-1</dim>
					<dim>32</dim>
					<dim>-1</dim>
					<dim>-1</dim>
				</port>
				<port id="1" precision="FP32">
					<dim>64</dim>
					<dim>32</dim>
					<dim>3</dim>
					<dim>3</dim>
				</port>
			</input>
			<output>
				<port id="2" precision="FP32">
					<dim>-1</dim>
					<dim>64</dim>
					<dim>-1</dim>
					<dim>-1</dim>
				</port>
			</output>
		</layer>
		<layer id="100" name="Reshape_8162964815148" type="Const" version="opset1">
			<data element_type="f32" shape="1, 64, 1, 1" offset="32124" size="256" />
			<output>
				<port id="0" precision="FP32">
					<dim>1</dim>
					<dim>64</dim>
					<dim>1</dim>
					<dim>1</dim>
				</port>
			</output>
		</layer>
		<layer id="101" name="/model.3/conv/Conv" type="Add" version="opset1">
			<data auto_broadcast="numpy" />
			<input>
				<port id="0" precision="FP32">
					<dim>-1</dim>
					<dim>64</dim>
					<dim>-1</dim>
					<dim>-1</dim>
				</port>
				<port id="1" precision="FP32">
					<dim>1</dim>
					<dim>64</dim>
					<dim>1</dim>
					<dim>1</dim>
				</port>
			</input>
			<output>
				<port id="2" precision="FP32" names="/model.3/conv/Conv_output_0">
					<dim>-1</dim>
					<dim>64</dim>
					<dim>-1</dim>
					<dim>-1</dim>
				</port>
			</output>
		</layer>
		<layer id="102" name="/model.3/act/Mul" type="Swish" version="opset4">
			<input>
				<port id="0" precision="FP32">
					<dim>-1</dim>
					<dim>64</dim>
					<dim>-1</dim>
					<dim>-1</dim>
				</port>
			</input>
			<output>
				<port id="1" precision="FP32" names="/model.3/act/Mul_output_0">
					<dim>-1</dim>
					<dim>64</dim>
					<dim>-1</dim>
					<dim>-1</dim>
				</port>
			</output>
		</layer>
		<layer id="103" name="3516352014302" type="Const" version="opset1">
			<data element_type="f32" shape="1, 1, 1, 1" offset="32380" size="4" />
			<output>
				<port id="0" precision="FP32">
					<dim>1</dim>
					<dim>1</dim>
					<dim>1</dim>
					<dim>1</dim>
				</port>
			</output>
		</layer>
		<layer id="104" name="3517352115226" type="Const" version="opset1">
			<data element_type="f32" shape="1, 1, 1, 1" offset="32384" size="4" />
			<output>
				<port id="0" precision="FP32">
					<dim>1</dim>
					<dim>1</dim>
					<dim>1</dim>
					<dim>1</dim>
				</port>
			</output>
		</layer>
		<layer id="105" name="3518352214467" type="Const" version="opset1">
			<data element_type="f32" shape="1, 1, 1, 1" offset="32380" size="4" />
			<output>
				<port id="0" precision="FP32">
					<dim>1</dim>
					<dim>1</dim>
					<dim>1</dim>
					<dim>1</dim>
				</port>
			</output>
		</layer>
		<layer id="106" name="3519352314245" type="Const" version="opset1">
			<data element_type="f32" shape="1, 1, 1, 1" offset="32384" size="4" />
			<output>
				<port id="0" precision="FP32">
					<dim>1</dim>
					<dim>1</dim>
					<dim>1</dim>
					<dim>1</dim>
				</port>
			</output>
		</layer>
		<layer id="107" name="/model.4/cv1/conv/Conv/WithoutBiases/fq_input_0" type="FakeQuantize" version="opset1">
			<data levels="256" auto_broadcast="numpy" />
			<input>
				<port id="0" precision="FP32">
					<dim>-1</dim>
					<dim>64</dim>
					<dim>-1</dim>
					<dim>-1</dim>
				</port>
				<port id="1" precision="FP32">
					<dim>1</dim>
					<dim>1</dim>
					<dim>1</dim>
					<dim>1</dim>
				</port>
				<port id="2" precision="FP32">
					<dim>1</dim>
					<dim>1</dim>
					<dim>1</dim>
					<dim>1</dim>
				</port>
				<port id="3" precision="FP32">
					<dim>1</dim>
					<dim>1</dim>
					<dim>1</dim>
					<dim>1</dim>
				</port>
				<port id="4" precision="FP32">
					<dim>1</dim>
					<dim>1</dim>
					<dim>1</dim>
					<dim>1</dim>
				</port>
			</input>
			<output>
				<port id="5" precision="FP32">
					<dim>-1</dim>
					<dim>64</dim>
					<dim>-1</dim>
					<dim>-1</dim>
				</port>
			</output>
		</layer>
		<layer id="108" name="model.4.cv1.conv.weight6518322/quantized1073214167" type="Const" version="opset1">
			<data element_type="i8" shape="64, 64, 1, 1" offset="32388" size="4096" />
			<output>
				<port id="0" precision="I8">
					<dim>64</dim>
					<dim>64</dim>
					<dim>1</dim>
					<dim>1</dim>
				</port>
			</output>
		</layer>
		<layer id="109" name="model.4.cv1.conv.weight6518322/quantized/to_f32" type="Convert" version="opset1">
			<data destination_type="f32" />
			<input>
				<port id="0" precision="I8">
					<dim>64</dim>
					<dim>64</dim>
					<dim>1</dim>
					<dim>1</dim>
				</port>
			</input>
			<output>
				<port id="1" precision="FP32">
					<dim>64</dim>
					<dim>64</dim>
					<dim>1</dim>
					<dim>1</dim>
				</port>
			</output>
		</layer>
		<layer id="110" name="/model.4/cv1/conv/Conv/WithoutBiases/fq_weights_1/scale1074015538" type="Const" version="opset1">
			<data element_type="f32" shape="64, 1, 1, 1" offset="36484" size="256" />
			<output>
				<port id="0" precision="FP32">
					<dim>64</dim>
					<dim>1</dim>
					<dim>1</dim>
					<dim>1</dim>
				</port>
			</output>
		</layer>
		<layer id="111" name="/model.4/cv1/conv/Conv/WithoutBiases/fq_weights_1/mulpiply_by_scale" type="Multiply" version="opset1">
			<data auto_broadcast="numpy" />
			<input>
				<port id="0" precision="FP32">
					<dim>64</dim>
					<dim>64</dim>
					<dim>1</dim>
					<dim>1</dim>
				</port>
				<port id="1" precision="FP32">
					<dim>64</dim>
					<dim>1</dim>
					<dim>1</dim>
					<dim>1</dim>
				</port>
			</input>
			<output>
				<port id="2" precision="FP32">
					<dim>64</dim>
					<dim>64</dim>
					<dim>1</dim>
					<dim>1</dim>
				</port>
			</output>
		</layer>
		<layer id="112" name="/model.4/cv1/conv/Conv/WithoutBiases" type="Convolution" version="opset1">
			<data strides="1, 1" dilations="1, 1" pads_begin="0, 0" pads_end="0, 0" auto_pad="explicit" />
			<input>
				<port id="0" precision="FP32">
					<dim>-1</dim>
					<dim>64</dim>
					<dim>-1</dim>
					<dim>-1</dim>
				</port>
				<port id="1" precision="FP32">
					<dim>64</dim>
					<dim>64</dim>
					<dim>1</dim>
					<dim>1</dim>
				</port>
			</input>
			<output>
				<port id="2" precision="FP32">
					<dim>-1</dim>
					<dim>64</dim>
					<dim>-1</dim>
					<dim>-1</dim>
				</port>
			</output>
		</layer>
		<layer id="113" name="Reshape_8167965314599" type="Const" version="opset1">
			<data element_type="f32" shape="1, 64, 1, 1" offset="36740" size="256" />
			<output>
				<port id="0" precision="FP32">
					<dim>1</dim>
					<dim>64</dim>
					<dim>1</dim>
					<dim>1</dim>
				</port>
			</output>
		</layer>
		<layer id="114" name="/model.4/cv1/conv/Conv" type="Add" version="opset1">
			<data auto_broadcast="numpy" />
			<input>
				<port id="0" precision="FP32">
					<dim>-1</dim>
					<dim>64</dim>
					<dim>-1</dim>
					<dim>-1</dim>
				</port>
				<port id="1" precision="FP32">
					<dim>1</dim>
					<dim>64</dim>
					<dim>1</dim>
					<dim>1</dim>
				</port>
			</input>
			<output>
				<port id="2" precision="FP32" names="/model.4/cv1/conv/Conv_output_0">
					<dim>-1</dim>
					<dim>64</dim>
					<dim>-1</dim>
					<dim>-1</dim>
				</port>
			</output>
		</layer>
		<layer id="115" name="/model.4/cv1/act/Mul" type="Swish" version="opset4">
			<input>
				<port id="0" precision="FP32">
					<dim>-1</dim>
					<dim>64</dim>
					<dim>-1</dim>
					<dim>-1</dim>
				</port>
			</input>
			<output>
				<port id="1" precision="FP32" names="/model.4/cv1/act/Mul_output_0">
					<dim>-1</dim>
					<dim>64</dim>
					<dim>-1</dim>
					<dim>-1</dim>
				</port>
			</output>
		</layer>
		<layer id="116" name="4880488414713" type="Const" version="opset1">
			<data element_type="f32" shape="1, 1, 1, 1" offset="36996" size="4" />
			<output>
				<port id="0" precision="FP32">
					<dim>1</dim>
					<dim>1</dim>
					<dim>1</dim>
					<dim>1</dim>
				</port>
			</output>
		</layer>
		<layer id="117" name="4881488515286" type="Const" version="opset1">
			<data element_type="f32" shape="1, 1, 1, 1" offset="37000" size="4" />
			<output>
				<port id="0" precision="FP32">
					<dim>1</dim>
					<dim>1</dim>
					<dim>1</dim>
					<dim>1</dim>
				</port>
			</output>
		</layer>
		<layer id="118" name="4882488614230" type="Const" version="opset1">
			<data element_type="f32" shape="1, 1, 1, 1" offset="36996" size="4" />
			<output>
				<port id="0" precision="FP32">
					<dim>1</dim>
					<dim>1</dim>
					<dim>1</dim>
					<dim>1</dim>
				</port>
			</output>
		</layer>
		<layer id="119" name="4883488715589" type="Const" version="opset1">
			<data element_type="f32" shape="1, 1, 1, 1" offset="37000" size="4" />
			<output>
				<port id="0" precision="FP32">
					<dim>1</dim>
					<dim>1</dim>
					<dim>1</dim>
					<dim>1</dim>
				</port>
			</output>
		</layer>
		<layer id="120" name="/model.4/Split/fq_input_0" type="FakeQuantize" version="opset1">
			<data levels="256" auto_broadcast="numpy" />
			<input>
				<port id="0" precision="FP32">
					<dim>-1</dim>
					<dim>64</dim>
					<dim>-1</dim>
					<dim>-1</dim>
				</port>
				<port id="1" precision="FP32">
					<dim>1</dim>
					<dim>1</dim>
					<dim>1</dim>
					<dim>1</dim>
				</port>
				<port id="2" precision="FP32">
					<dim>1</dim>
					<dim>1</dim>
					<dim>1</dim>
					<dim>1</dim>
				</port>
				<port id="3" precision="FP32">
					<dim>1</dim>
					<dim>1</dim>
					<dim>1</dim>
					<dim>1</dim>
				</port>
				<port id="4" precision="FP32">
					<dim>1</dim>
					<dim>1</dim>
					<dim>1</dim>
					<dim>1</dim>
				</port>
			</input>
			<output>
				<port id="5" precision="FP32">
					<dim>-1</dim>
					<dim>64</dim>
					<dim>-1</dim>
					<dim>-1</dim>
				</port>
			</output>
		</layer>
		<layer id="121" name="Constant_8171065615415" type="Const" version="opset1">
			<data element_type="i64" shape="" offset="6736" size="8" />
			<output>
				<port id="0" precision="I64" />
			</output>
		</layer>
		<layer id="122" name="Constant_2865715355" type="Const" version="opset1">
			<data element_type="i64" shape="2" offset="37004" size="16" />
			<output>
				<port id="0" precision="I64" names="onnx::Split_161">
					<dim>2</dim>
				</port>
			</output>
		</layer>
		<layer id="123" name="/model.4/Split" type="VariadicSplit" version="opset1">
			<input>
				<port id="0" precision="FP32">
					<dim>-1</dim>
					<dim>64</dim>
					<dim>-1</dim>
					<dim>-1</dim>
				</port>
				<port id="1" precision="I64" />
				<port id="2" precision="I64">
					<dim>2</dim>
				</port>
			</input>
			<output>
				<port id="3" precision="FP32" names="/model.4/Split_output_0">
					<dim>-1</dim>
					<dim>32</dim>
					<dim>-1</dim>
					<dim>-1</dim>
				</port>
				<port id="4" precision="FP32" names="/model.4/Split_output_1">
					<dim>-1</dim>
					<dim>32</dim>
					<dim>-1</dim>
					<dim>-1</dim>
				</port>
			</output>
		</layer>
		<layer id="124" name="model.4.m.0.cv1.conv.weight6608326/quantized1067214707" type="Const" version="opset1">
			<data element_type="i8" shape="32, 32, 3, 3" offset="37020" size="9216" />
			<output>
				<port id="0" precision="I8">
					<dim>32</dim>
					<dim>32</dim>
					<dim>3</dim>
					<dim>3</dim>
				</port>
			</output>
		</layer>
		<layer id="125" name="model.4.m.0.cv1.conv.weight6608326/quantized/to_f32" type="Convert" version="opset1">
			<data destination_type="f32" />
			<input>
				<port id="0" precision="I8">
					<dim>32</dim>
					<dim>32</dim>
					<dim>3</dim>
					<dim>3</dim>
				</port>
			</input>
			<output>
				<port id="1" precision="FP32">
					<dim>32</dim>
					<dim>32</dim>
					<dim>3</dim>
					<dim>3</dim>
				</port>
			</output>
		</layer>
		<layer id="126" name="/model.4/m.0/cv1/conv/Conv/WithoutBiases/fq_weights_1/scale1068014290" type="Const" version="opset1">
			<data element_type="f32" shape="32, 1, 1, 1" offset="46236" size="128" />
			<output>
				<port id="0" precision="FP32">
					<dim>32</dim>
					<dim>1</dim>
					<dim>1</dim>
					<dim>1</dim>
				</port>
			</output>
		</layer>
		<layer id="127" name="/model.4/m.0/cv1/conv/Conv/WithoutBiases/fq_weights_1/mulpiply_by_scale" type="Multiply" version="opset1">
			<data auto_broadcast="numpy" />
			<input>
				<port id="0" precision="FP32">
					<dim>32</dim>
					<dim>32</dim>
					<dim>3</dim>
					<dim>3</dim>
				</port>
				<port id="1" precision="FP32">
					<dim>32</dim>
					<dim>1</dim>
					<dim>1</dim>
					<dim>1</dim>
				</port>
			</input>
			<output>
				<port id="2" precision="FP32">
					<dim>32</dim>
					<dim>32</dim>
					<dim>3</dim>
					<dim>3</dim>
				</port>
			</output>
		</layer>
		<layer id="128" name="/model.4/m.0/cv1/conv/Conv/WithoutBiases" type="Convolution" version="opset1">
			<data strides="1, 1" dilations="1, 1" pads_begin="1, 1" pads_end="1, 1" auto_pad="explicit" />
			<input>
				<port id="0" precision="FP32">
					<dim>-1</dim>
					<dim>32</dim>
					<dim>-1</dim>
					<dim>-1</dim>
				</port>
				<port id="1" precision="FP32">
					<dim>32</dim>
					<dim>32</dim>
					<dim>3</dim>
					<dim>3</dim>
				</port>
			</input>
			<output>
				<port id="2" precision="FP32">
					<dim>-1</dim>
					<dim>32</dim>
					<dim>-1</dim>
					<dim>-1</dim>
				</port>
			</output>
		</layer>
		<layer id="129" name="Reshape_8173266214065" type="Const" version="opset1">
			<data element_type="f32" shape="1, 32, 1, 1" offset="46364" size="128" />
			<output>
				<port id="0" precision="FP32">
					<dim>1</dim>
					<dim>32</dim>
					<dim>1</dim>
					<dim>1</dim>
				</port>
			</output>
		</layer>
		<layer id="130" name="/model.4/m.0/cv1/conv/Conv" type="Add" version="opset1">
			<data auto_broadcast="numpy" />
			<input>
				<port id="0" precision="FP32">
					<dim>-1</dim>
					<dim>32</dim>
					<dim>-1</dim>
					<dim>-1</dim>
				</port>
				<port id="1" precision="FP32">
					<dim>1</dim>
					<dim>32</dim>
					<dim>1</dim>
					<dim>1</dim>
				</port>
			</input>
			<output>
				<port id="2" precision="FP32" names="/model.4/m.0/cv1/conv/Conv_output_0">
					<dim>-1</dim>
					<dim>32</dim>
					<dim>-1</dim>
					<dim>-1</dim>
				</port>
			</output>
		</layer>
		<layer id="131" name="/model.4/m.0/cv1/act/Mul" type="Swish" version="opset4">
			<input>
				<port id="0" precision="FP32">
					<dim>-1</dim>
					<dim>32</dim>
					<dim>-1</dim>
					<dim>-1</dim>
				</port>
			</input>
			<output>
				<port id="1" precision="FP32" names="/model.4/m.0/cv1/act/Mul_output_0">
					<dim>-1</dim>
					<dim>32</dim>
					<dim>-1</dim>
					<dim>-1</dim>
				</port>
			</output>
		</layer>
		<layer id="132" name="3316332014062" type="Const" version="opset1">
			<data element_type="f32" shape="1, 1, 1, 1" offset="46492" size="4" />
			<output>
				<port id="0" precision="FP32">
					<dim>1</dim>
					<dim>1</dim>
					<dim>1</dim>
					<dim>1</dim>
				</port>
			</output>
		</layer>
		<layer id="133" name="3317332115655" type="Const" version="opset1">
			<data element_type="f32" shape="1, 1, 1, 1" offset="46496" size="4" />
			<output>
				<port id="0" precision="FP32">
					<dim>1</dim>
					<dim>1</dim>
					<dim>1</dim>
					<dim>1</dim>
				</port>
			</output>
		</layer>
		<layer id="134" name="3318332215094" type="Const" version="opset1">
			<data element_type="f32" shape="1, 1, 1, 1" offset="46492" size="4" />
			<output>
				<port id="0" precision="FP32">
					<dim>1</dim>
					<dim>1</dim>
					<dim>1</dim>
					<dim>1</dim>
				</port>
			</output>
		</layer>
		<layer id="135" name="3319332314956" type="Const" version="opset1">
			<data element_type="f32" shape="1, 1, 1, 1" offset="46496" size="4" />
			<output>
				<port id="0" precision="FP32">
					<dim>1</dim>
					<dim>1</dim>
					<dim>1</dim>
					<dim>1</dim>
				</port>
			</output>
		</layer>
		<layer id="136" name="/model.4/m.0/cv2/conv/Conv/WithoutBiases/fq_input_0" type="FakeQuantize" version="opset1">
			<data levels="256" auto_broadcast="numpy" />
			<input>
				<port id="0" precision="FP32">
					<dim>-1</dim>
					<dim>32</dim>
					<dim>-1</dim>
					<dim>-1</dim>
				</port>
				<port id="1" precision="FP32">
					<dim>1</dim>
					<dim>1</dim>
					<dim>1</dim>
					<dim>1</dim>
				</port>
				<port id="2" precision="FP32">
					<dim>1</dim>
					<dim>1</dim>
					<dim>1</dim>
					<dim>1</dim>
				</port>
				<port id="3" precision="FP32">
					<dim>1</dim>
					<dim>1</dim>
					<dim>1</dim>
					<dim>1</dim>
				</port>
				<port id="4" precision="FP32">
					<dim>1</dim>
					<dim>1</dim>
					<dim>1</dim>
					<dim>1</dim>
				</port>
			</input>
			<output>
				<port id="5" precision="FP32">
					<dim>-1</dim>
					<dim>32</dim>
					<dim>-1</dim>
					<dim>-1</dim>
				</port>
			</output>
		</layer>
		<layer id="137" name="model.4.m.0.cv2.conv.weight6658328/quantized950214845" type="Const" version="opset1">
			<data element_type="i8" shape="32, 32, 3, 3" offset="46500" size="9216" />
			<output>
				<port id="0" precision="I8">
					<dim>32</dim>
					<dim>32</dim>
					<dim>3</dim>
					<dim>3</dim>
				</port>
			</output>
		</layer>
		<layer id="138" name="model.4.m.0.cv2.conv.weight6658328/quantized/to_f32" type="Convert" version="opset1">
			<data destination_type="f32" />
			<input>
				<port id="0" precision="I8">
					<dim>32</dim>
					<dim>32</dim>
					<dim>3</dim>
					<dim>3</dim>
				</port>
			</input>
			<output>
				<port id="1" precision="FP32">
					<dim>32</dim>
					<dim>32</dim>
					<dim>3</dim>
					<dim>3</dim>
				</port>
			</output>
		</layer>
		<layer id="139" name="/model.4/m.0/cv2/conv/Conv/WithoutBiases/fq_weights_1/scale951014572" type="Const" version="opset1">
			<data element_type="f32" shape="32, 1, 1, 1" offset="55716" size="128" />
			<output>
				<port id="0" precision="FP32">
					<dim>32</dim>
					<dim>1</dim>
					<dim>1</dim>
					<dim>1</dim>
				</port>
			</output>
		</layer>
		<layer id="140" name="/model.4/m.0/cv2/conv/Conv/WithoutBiases/fq_weights_1/mulpiply_by_scale" type="Multiply" version="opset1">
			<data auto_broadcast="numpy" />
			<input>
				<port id="0" precision="FP32">
					<dim>32</dim>
					<dim>32</dim>
					<dim>3</dim>
					<dim>3</dim>
				</port>
				<port id="1" precision="FP32">
					<dim>32</dim>
					<dim>1</dim>
					<dim>1</dim>
					<dim>1</dim>
				</port>
			</input>
			<output>
				<port id="2" precision="FP32">
					<dim>32</dim>
					<dim>32</dim>
					<dim>3</dim>
					<dim>3</dim>
				</port>
			</output>
		</layer>
		<layer id="141" name="/model.4/m.0/cv2/conv/Conv/WithoutBiases" type="Convolution" version="opset1">
			<data strides="1, 1" dilations="1, 1" pads_begin="1, 1" pads_end="1, 1" auto_pad="explicit" />
			<input>
				<port id="0" precision="FP32">
					<dim>-1</dim>
					<dim>32</dim>
					<dim>-1</dim>
					<dim>-1</dim>
				</port>
				<port id="1" precision="FP32">
					<dim>32</dim>
					<dim>32</dim>
					<dim>3</dim>
					<dim>3</dim>
				</port>
			</input>
			<output>
				<port id="2" precision="FP32">
					<dim>-1</dim>
					<dim>32</dim>
					<dim>-1</dim>
					<dim>-1</dim>
				</port>
			</output>
		</layer>
		<layer id="142" name="Reshape_8178266714494" type="Const" version="opset1">
			<data element_type="f32" shape="1, 32, 1, 1" offset="55844" size="128" />
			<output>
				<port id="0" precision="FP32">
					<dim>1</dim>
					<dim>32</dim>
					<dim>1</dim>
					<dim>1</dim>
				</port>
			</output>
		</layer>
		<layer id="143" name="/model.4/m.0/cv2/conv/Conv" type="Add" version="opset1">
			<data auto_broadcast="numpy" />
			<input>
				<port id="0" precision="FP32">
					<dim>-1</dim>
					<dim>32</dim>
					<dim>-1</dim>
					<dim>-1</dim>
				</port>
				<port id="1" precision="FP32">
					<dim>1</dim>
					<dim>32</dim>
					<dim>1</dim>
					<dim>1</dim>
				</port>
			</input>
			<output>
				<port id="2" precision="FP32" names="/model.4/m.0/cv2/conv/Conv_output_0">
					<dim>-1</dim>
					<dim>32</dim>
					<dim>-1</dim>
					<dim>-1</dim>
				</port>
			</output>
		</layer>
		<layer id="144" name="/model.4/m.0/cv2/act/Mul" type="Swish" version="opset4">
			<input>
				<port id="0" precision="FP32">
					<dim>-1</dim>
					<dim>32</dim>
					<dim>-1</dim>
					<dim>-1</dim>
				</port>
			</input>
			<output>
				<port id="1" precision="FP32" names="/model.4/m.0/cv2/act/Mul_output_0">
					<dim>-1</dim>
					<dim>32</dim>
					<dim>-1</dim>
					<dim>-1</dim>
				</port>
			</output>
		</layer>
		<layer id="145" name="2546255015328" type="Const" version="opset1">
			<data element_type="f32" shape="1, 1, 1, 1" offset="5440" size="4" />
			<output>
				<port id="0" precision="FP32">
					<dim>1</dim>
					<dim>1</dim>
					<dim>1</dim>
					<dim>1</dim>
				</port>
			</output>
		</layer>
		<layer id="146" name="2547255114974" type="Const" version="opset1">
			<data element_type="f32" shape="1, 1, 1, 1" offset="13432" size="4" />
			<output>
				<port id="0" precision="FP32">
					<dim>1</dim>
					<dim>1</dim>
					<dim>1</dim>
					<dim>1</dim>
				</port>
			</output>
		</layer>
		<layer id="147" name="2548255215031" type="Const" version="opset1">
			<data element_type="f32" shape="1, 1, 1, 1" offset="5440" size="4" />
			<output>
				<port id="0" precision="FP32">
					<dim>1</dim>
					<dim>1</dim>
					<dim>1</dim>
					<dim>1</dim>
				</port>
			</output>
		</layer>
		<layer id="148" name="2549255314788" type="Const" version="opset1">
			<data element_type="f32" shape="1, 1, 1, 1" offset="13432" size="4" />
			<output>
				<port id="0" precision="FP32">
					<dim>1</dim>
					<dim>1</dim>
					<dim>1</dim>
					<dim>1</dim>
				</port>
			</output>
		</layer>
		<layer id="149" name="/model.4/m.0/Add/fq_input_1" type="FakeQuantize" version="opset1">
			<data levels="256" auto_broadcast="numpy" />
			<input>
				<port id="0" precision="FP32">
					<dim>-1</dim>
					<dim>32</dim>
					<dim>-1</dim>
					<dim>-1</dim>
				</port>
				<port id="1" precision="FP32">
					<dim>1</dim>
					<dim>1</dim>
					<dim>1</dim>
					<dim>1</dim>
				</port>
				<port id="2" precision="FP32">
					<dim>1</dim>
					<dim>1</dim>
					<dim>1</dim>
					<dim>1</dim>
				</port>
				<port id="3" precision="FP32">
					<dim>1</dim>
					<dim>1</dim>
					<dim>1</dim>
					<dim>1</dim>
				</port>
				<port id="4" precision="FP32">
					<dim>1</dim>
					<dim>1</dim>
					<dim>1</dim>
					<dim>1</dim>
				</port>
			</input>
			<output>
				<port id="5" precision="FP32">
					<dim>-1</dim>
					<dim>32</dim>
					<dim>-1</dim>
					<dim>-1</dim>
				</port>
			</output>
		</layer>
		<layer id="150" name="/model.4/m.0/Add" type="Add" version="opset1">
			<data auto_broadcast="numpy" />
			<input>
				<port id="0" precision="FP32">
					<dim>-1</dim>
					<dim>32</dim>
					<dim>-1</dim>
					<dim>-1</dim>
				</port>
				<port id="1" precision="FP32">
					<dim>-1</dim>
					<dim>32</dim>
					<dim>-1</dim>
					<dim>-1</dim>
				</port>
			</input>
			<output>
				<port id="2" precision="FP32" names="/model.4/m.0/Add_output_0">
					<dim>-1</dim>
					<dim>32</dim>
					<dim>-1</dim>
					<dim>-1</dim>
				</port>
			</output>
		</layer>
		<layer id="151" name="4860486414935" type="Const" version="opset1">
			<data element_type="f32" shape="1, 1, 1, 1" offset="36996" size="4" />
			<output>
				<port id="0" precision="FP32">
					<dim>1</dim>
					<dim>1</dim>
					<dim>1</dim>
					<dim>1</dim>
				</port>
			</output>
		</layer>
		<layer id="152" name="4861486515772" type="Const" version="opset1">
			<data element_type="f32" shape="1, 1, 1, 1" offset="37000" size="4" />
			<output>
				<port id="0" precision="FP32">
					<dim>1</dim>
					<dim>1</dim>
					<dim>1</dim>
					<dim>1</dim>
				</port>
			</output>
		</layer>
		<layer id="153" name="4862486614998" type="Const" version="opset1">
			<data element_type="f32" shape="1, 1, 1, 1" offset="36996" size="4" />
			<output>
				<port id="0" precision="FP32">
					<dim>1</dim>
					<dim>1</dim>
					<dim>1</dim>
					<dim>1</dim>
				</port>
			</output>
		</layer>
		<layer id="154" name="4863486714983" type="Const" version="opset1">
			<data element_type="f32" shape="1, 1, 1, 1" offset="37000" size="4" />
			<output>
				<port id="0" precision="FP32">
					<dim>1</dim>
					<dim>1</dim>
					<dim>1</dim>
					<dim>1</dim>
				</port>
			</output>
		</layer>
		<layer id="155" name="/model.4/Concat/fq_input_2" type="FakeQuantize" version="opset1">
			<data levels="256" auto_broadcast="numpy" />
			<input>
				<port id="0" precision="FP32">
					<dim>-1</dim>
					<dim>32</dim>
					<dim>-1</dim>
					<dim>-1</dim>
				</port>
				<port id="1" precision="FP32">
					<dim>1</dim>
					<dim>1</dim>
					<dim>1</dim>
					<dim>1</dim>
				</port>
				<port id="2" precision="FP32">
					<dim>1</dim>
					<dim>1</dim>
					<dim>1</dim>
					<dim>1</dim>
				</port>
				<port id="3" precision="FP32">
					<dim>1</dim>
					<dim>1</dim>
					<dim>1</dim>
					<dim>1</dim>
				</port>
				<port id="4" precision="FP32">
					<dim>1</dim>
					<dim>1</dim>
					<dim>1</dim>
					<dim>1</dim>
				</port>
			</input>
			<output>
				<port id="5" precision="FP32">
					<dim>-1</dim>
					<dim>32</dim>
					<dim>-1</dim>
					<dim>-1</dim>
				</port>
			</output>
		</layer>
		<layer id="156" name="model.4.m.1.cv1.conv.weight6718330/quantized908215694" type="Const" version="opset1">
			<data element_type="i8" shape="32, 32, 3, 3" offset="55972" size="9216" />
			<output>
				<port id="0" precision="I8">
					<dim>32</dim>
					<dim>32</dim>
					<dim>3</dim>
					<dim>3</dim>
				</port>
			</output>
		</layer>
		<layer id="157" name="model.4.m.1.cv1.conv.weight6718330/quantized/to_f32" type="Convert" version="opset1">
			<data destination_type="f32" />
			<input>
				<port id="0" precision="I8">
					<dim>32</dim>
					<dim>32</dim>
					<dim>3</dim>
					<dim>3</dim>
				</port>
			</input>
			<output>
				<port id="1" precision="FP32">
					<dim>32</dim>
					<dim>32</dim>
					<dim>3</dim>
					<dim>3</dim>
				</port>
			</output>
		</layer>
		<layer id="158" name="/model.4/m.1/cv1/conv/Conv/WithoutBiases/fq_weights_1/scale909014053" type="Const" version="opset1">
			<data element_type="f32" shape="32, 1, 1, 1" offset="65188" size="128" />
			<output>
				<port id="0" precision="FP32">
					<dim>32</dim>
					<dim>1</dim>
					<dim>1</dim>
					<dim>1</dim>
				</port>
			</output>
		</layer>
		<layer id="159" name="/model.4/m.1/cv1/conv/Conv/WithoutBiases/fq_weights_1/mulpiply_by_scale" type="Multiply" version="opset1">
			<data auto_broadcast="numpy" />
			<input>
				<port id="0" precision="FP32">
					<dim>32</dim>
					<dim>32</dim>
					<dim>3</dim>
					<dim>3</dim>
				</port>
				<port id="1" precision="FP32">
					<dim>32</dim>
					<dim>1</dim>
					<dim>1</dim>
					<dim>1</dim>
				</port>
			</input>
			<output>
				<port id="2" precision="FP32">
					<dim>32</dim>
					<dim>32</dim>
					<dim>3</dim>
					<dim>3</dim>
				</port>
			</output>
		</layer>
		<layer id="160" name="/model.4/m.1/cv1/conv/Conv/WithoutBiases" type="Convolution" version="opset1">
			<data strides="1, 1" dilations="1, 1" pads_begin="1, 1" pads_end="1, 1" auto_pad="explicit" />
			<input>
				<port id="0" precision="FP32">
					<dim>-1</dim>
					<dim>32</dim>
					<dim>-1</dim>
					<dim>-1</dim>
				</port>
				<port id="1" precision="FP32">
					<dim>32</dim>
					<dim>32</dim>
					<dim>3</dim>
					<dim>3</dim>
				</port>
			</input>
			<output>
				<port id="2" precision="FP32">
					<dim>-1</dim>
					<dim>32</dim>
					<dim>-1</dim>
					<dim>-1</dim>
				</port>
			</output>
		</layer>
		<layer id="161" name="Reshape_8183367314236" type="Const" version="opset1">
			<data element_type="f32" shape="1, 32, 1, 1" offset="65316" size="128" />
			<output>
				<port id="0" precision="FP32">
					<dim>1</dim>
					<dim>32</dim>
					<dim>1</dim>
					<dim>1</dim>
				</port>
			</output>
		</layer>
		<layer id="162" name="/model.4/m.1/cv1/conv/Conv" type="Add" version="opset1">
			<data auto_broadcast="numpy" />
			<input>
				<port id="0" precision="FP32">
					<dim>-1</dim>
					<dim>32</dim>
					<dim>-1</dim>
					<dim>-1</dim>
				</port>
				<port id="1" precision="FP32">
					<dim>1</dim>
					<dim>32</dim>
					<dim>1</dim>
					<dim>1</dim>
				</port>
			</input>
			<output>
				<port id="2" precision="FP32" names="/model.4/m.1/cv1/conv/Conv_output_0">
					<dim>-1</dim>
					<dim>32</dim>
					<dim>-1</dim>
					<dim>-1</dim>
				</port>
			</output>
		</layer>
		<layer id="163" name="/model.4/m.1/cv1/act/Mul" type="Swish" version="opset4">
			<input>
				<port id="0" precision="FP32">
					<dim>-1</dim>
					<dim>32</dim>
					<dim>-1</dim>
					<dim>-1</dim>
				</port>
			</input>
			<output>
				<port id="1" precision="FP32" names="/model.4/m.1/cv1/act/Mul_output_0">
					<dim>-1</dim>
					<dim>32</dim>
					<dim>-1</dim>
					<dim>-1</dim>
				</port>
			</output>
		</layer>
		<layer id="164" name="3616362014749" type="Const" version="opset1">
			<data element_type="f32" shape="1, 1, 1, 1" offset="5440" size="4" />
			<output>
				<port id="0" precision="FP32">
					<dim>1</dim>
					<dim>1</dim>
					<dim>1</dim>
					<dim>1</dim>
				</port>
			</output>
		</layer>
		<layer id="165" name="3617362114677" type="Const" version="opset1">
			<data element_type="f32" shape="1, 1, 1, 1" offset="65444" size="4" />
			<output>
				<port id="0" precision="FP32">
					<dim>1</dim>
					<dim>1</dim>
					<dim>1</dim>
					<dim>1</dim>
				</port>
			</output>
		</layer>
		<layer id="166" name="3618362215235" type="Const" version="opset1">
			<data element_type="f32" shape="1, 1, 1, 1" offset="5440" size="4" />
			<output>
				<port id="0" precision="FP32">
					<dim>1</dim>
					<dim>1</dim>
					<dim>1</dim>
					<dim>1</dim>
				</port>
			</output>
		</layer>
		<layer id="167" name="3619362315037" type="Const" version="opset1">
			<data element_type="f32" shape="1, 1, 1, 1" offset="65444" size="4" />
			<output>
				<port id="0" precision="FP32">
					<dim>1</dim>
					<dim>1</dim>
					<dim>1</dim>
					<dim>1</dim>
				</port>
			</output>
		</layer>
		<layer id="168" name="/model.4/m.1/cv2/conv/Conv/WithoutBiases/fq_input_0" type="FakeQuantize" version="opset1">
			<data levels="256" auto_broadcast="numpy" />
			<input>
				<port id="0" precision="FP32">
					<dim>-1</dim>
					<dim>32</dim>
					<dim>-1</dim>
					<dim>-1</dim>
				</port>
				<port id="1" precision="FP32">
					<dim>1</dim>
					<dim>1</dim>
					<dim>1</dim>
					<dim>1</dim>
				</port>
				<port id="2" precision="FP32">
					<dim>1</dim>
					<dim>1</dim>
					<dim>1</dim>
					<dim>1</dim>
				</port>
				<port id="3" precision="FP32">
					<dim>1</dim>
					<dim>1</dim>
					<dim>1</dim>
					<dim>1</dim>
				</port>
				<port id="4" precision="FP32">
					<dim>1</dim>
					<dim>1</dim>
					<dim>1</dim>
					<dim>1</dim>
				</port>
			</input>
			<output>
				<port id="5" precision="FP32">
					<dim>-1</dim>
					<dim>32</dim>
					<dim>-1</dim>
					<dim>-1</dim>
				</port>
			</output>
		</layer>
		<layer id="169" name="model.4.m.1.cv2.conv.weight6768332/quantized1055215523" type="Const" version="opset1">
			<data element_type="i8" shape="32, 32, 3, 3" offset="65448" size="9216" />
			<output>
				<port id="0" precision="I8">
					<dim>32</dim>
					<dim>32</dim>
					<dim>3</dim>
					<dim>3</dim>
				</port>
			</output>
		</layer>
		<layer id="170" name="model.4.m.1.cv2.conv.weight6768332/quantized/to_f32" type="Convert" version="opset1">
			<data destination_type="f32" />
			<input>
				<port id="0" precision="I8">
					<dim>32</dim>
					<dim>32</dim>
					<dim>3</dim>
					<dim>3</dim>
				</port>
			</input>
			<output>
				<port id="1" precision="FP32">
					<dim>32</dim>
					<dim>32</dim>
					<dim>3</dim>
					<dim>3</dim>
				</port>
			</output>
		</layer>
		<layer id="171" name="/model.4/m.1/cv2/conv/Conv/WithoutBiases/fq_weights_1/scale1056014674" type="Const" version="opset1">
			<data element_type="f32" shape="32, 1, 1, 1" offset="74664" size="128" />
			<output>
				<port id="0" precision="FP32">
					<dim>32</dim>
					<dim>1</dim>
					<dim>1</dim>
					<dim>1</dim>
				</port>
			</output>
		</layer>
		<layer id="172" name="/model.4/m.1/cv2/conv/Conv/WithoutBiases/fq_weights_1/mulpiply_by_scale" type="Multiply" version="opset1">
			<data auto_broadcast="numpy" />
			<input>
				<port id="0" precision="FP32">
					<dim>32</dim>
					<dim>32</dim>
					<dim>3</dim>
					<dim>3</dim>
				</port>
				<port id="1" precision="FP32">
					<dim>32</dim>
					<dim>1</dim>
					<dim>1</dim>
					<dim>1</dim>
				</port>
			</input>
			<output>
				<port id="2" precision="FP32">
					<dim>32</dim>
					<dim>32</dim>
					<dim>3</dim>
					<dim>3</dim>
				</port>
			</output>
		</layer>
		<layer id="173" name="/model.4/m.1/cv2/conv/Conv/WithoutBiases" type="Convolution" version="opset1">
			<data strides="1, 1" dilations="1, 1" pads_begin="1, 1" pads_end="1, 1" auto_pad="explicit" />
			<input>
				<port id="0" precision="FP32">
					<dim>-1</dim>
					<dim>32</dim>
					<dim>-1</dim>
					<dim>-1</dim>
				</port>
				<port id="1" precision="FP32">
					<dim>32</dim>
					<dim>32</dim>
					<dim>3</dim>
					<dim>3</dim>
				</port>
			</input>
			<output>
				<port id="2" precision="FP32">
					<dim>-1</dim>
					<dim>32</dim>
					<dim>-1</dim>
					<dim>-1</dim>
				</port>
			</output>
		</layer>
		<layer id="174" name="Reshape_8188367815061" type="Const" version="opset1">
			<data element_type="f32" shape="1, 32, 1, 1" offset="74792" size="128" />
			<output>
				<port id="0" precision="FP32">
					<dim>1</dim>
					<dim>32</dim>
					<dim>1</dim>
					<dim>1</dim>
				</port>
			</output>
		</layer>
		<layer id="175" name="/model.4/m.1/cv2/conv/Conv" type="Add" version="opset1">
			<data auto_broadcast="numpy" />
			<input>
				<port id="0" precision="FP32">
					<dim>-1</dim>
					<dim>32</dim>
					<dim>-1</dim>
					<dim>-1</dim>
				</port>
				<port id="1" precision="FP32">
					<dim>1</dim>
					<dim>32</dim>
					<dim>1</dim>
					<dim>1</dim>
				</port>
			</input>
			<output>
				<port id="2" precision="FP32" names="/model.4/m.1/cv2/conv/Conv_output_0">
					<dim>-1</dim>
					<dim>32</dim>
					<dim>-1</dim>
					<dim>-1</dim>
				</port>
			</output>
		</layer>
		<layer id="176" name="/model.4/m.1/cv2/act/Mul" type="Swish" version="opset4">
			<input>
				<port id="0" precision="FP32">
					<dim>-1</dim>
					<dim>32</dim>
					<dim>-1</dim>
					<dim>-1</dim>
				</port>
			</input>
			<output>
				<port id="1" precision="FP32" names="/model.4/m.1/cv2/act/Mul_output_0">
					<dim>-1</dim>
					<dim>32</dim>
					<dim>-1</dim>
					<dim>-1</dim>
				</port>
			</output>
		</layer>
		<layer id="177" name="2896290014737" type="Const" version="opset1">
			<data element_type="f32" shape="1, 1, 1, 1" offset="74920" size="4" />
			<output>
				<port id="0" precision="FP32">
					<dim>1</dim>
					<dim>1</dim>
					<dim>1</dim>
					<dim>1</dim>
				</port>
			</output>
		</layer>
		<layer id="178" name="2897290115301" type="Const" version="opset1">
			<data element_type="f32" shape="1, 1, 1, 1" offset="74924" size="4" />
			<output>
				<port id="0" precision="FP32">
					<dim>1</dim>
					<dim>1</dim>
					<dim>1</dim>
					<dim>1</dim>
				</port>
			</output>
		</layer>
		<layer id="179" name="2898290215151" type="Const" version="opset1">
			<data element_type="f32" shape="1, 1, 1, 1" offset="74920" size="4" />
			<output>
				<port id="0" precision="FP32">
					<dim>1</dim>
					<dim>1</dim>
					<dim>1</dim>
					<dim>1</dim>
				</port>
			</output>
		</layer>
		<layer id="180" name="2899290314716" type="Const" version="opset1">
			<data element_type="f32" shape="1, 1, 1, 1" offset="74924" size="4" />
			<output>
				<port id="0" precision="FP32">
					<dim>1</dim>
					<dim>1</dim>
					<dim>1</dim>
					<dim>1</dim>
				</port>
			</output>
		</layer>
		<layer id="181" name="/model.4/m.1/Add/fq_input_1" type="FakeQuantize" version="opset1">
			<data levels="256" auto_broadcast="numpy" />
			<input>
				<port id="0" precision="FP32">
					<dim>-1</dim>
					<dim>32</dim>
					<dim>-1</dim>
					<dim>-1</dim>
				</port>
				<port id="1" precision="FP32">
					<dim>1</dim>
					<dim>1</dim>
					<dim>1</dim>
					<dim>1</dim>
				</port>
				<port id="2" precision="FP32">
					<dim>1</dim>
					<dim>1</dim>
					<dim>1</dim>
					<dim>1</dim>
				</port>
				<port id="3" precision="FP32">
					<dim>1</dim>
					<dim>1</dim>
					<dim>1</dim>
					<dim>1</dim>
				</port>
				<port id="4" precision="FP32">
					<dim>1</dim>
					<dim>1</dim>
					<dim>1</dim>
					<dim>1</dim>
				</port>
			</input>
			<output>
				<port id="5" precision="FP32">
					<dim>-1</dim>
					<dim>32</dim>
					<dim>-1</dim>
					<dim>-1</dim>
				</port>
			</output>
		</layer>
		<layer id="182" name="/model.4/m.1/Add" type="Add" version="opset1">
			<data auto_broadcast="numpy" />
			<input>
				<port id="0" precision="FP32">
					<dim>-1</dim>
					<dim>32</dim>
					<dim>-1</dim>
					<dim>-1</dim>
				</port>
				<port id="1" precision="FP32">
					<dim>-1</dim>
					<dim>32</dim>
					<dim>-1</dim>
					<dim>-1</dim>
				</port>
			</input>
			<output>
				<port id="2" precision="FP32" names="/model.4/m.1/Add_output_0">
					<dim>-1</dim>
					<dim>32</dim>
					<dim>-1</dim>
					<dim>-1</dim>
				</port>
			</output>
		</layer>
		<layer id="183" name="4870487415088" type="Const" version="opset1">
			<data element_type="f32" shape="1, 1, 1, 1" offset="36996" size="4" />
			<output>
				<port id="0" precision="FP32">
					<dim>1</dim>
					<dim>1</dim>
					<dim>1</dim>
					<dim>1</dim>
				</port>
			</output>
		</layer>
		<layer id="184" name="4871487514344" type="Const" version="opset1">
			<data element_type="f32" shape="1, 1, 1, 1" offset="37000" size="4" />
			<output>
				<port id="0" precision="FP32">
					<dim>1</dim>
					<dim>1</dim>
					<dim>1</dim>
					<dim>1</dim>
				</port>
			</output>
		</layer>
		<layer id="185" name="4872487615028" type="Const" version="opset1">
			<data element_type="f32" shape="1, 1, 1, 1" offset="36996" size="4" />
			<output>
				<port id="0" precision="FP32">
					<dim>1</dim>
					<dim>1</dim>
					<dim>1</dim>
					<dim>1</dim>
				</port>
			</output>
		</layer>
		<layer id="186" name="4873487714818" type="Const" version="opset1">
			<data element_type="f32" shape="1, 1, 1, 1" offset="37000" size="4" />
			<output>
				<port id="0" precision="FP32">
					<dim>1</dim>
					<dim>1</dim>
					<dim>1</dim>
					<dim>1</dim>
				</port>
			</output>
		</layer>
		<layer id="187" name="/model.4/Concat/fq_input_3" type="FakeQuantize" version="opset1">
			<data levels="256" auto_broadcast="numpy" />
			<input>
				<port id="0" precision="FP32">
					<dim>-1</dim>
					<dim>32</dim>
					<dim>-1</dim>
					<dim>-1</dim>
				</port>
				<port id="1" precision="FP32">
					<dim>1</dim>
					<dim>1</dim>
					<dim>1</dim>
					<dim>1</dim>
				</port>
				<port id="2" precision="FP32">
					<dim>1</dim>
					<dim>1</dim>
					<dim>1</dim>
					<dim>1</dim>
				</port>
				<port id="3" precision="FP32">
					<dim>1</dim>
					<dim>1</dim>
					<dim>1</dim>
					<dim>1</dim>
				</port>
				<port id="4" precision="FP32">
					<dim>1</dim>
					<dim>1</dim>
					<dim>1</dim>
					<dim>1</dim>
				</port>
			</input>
			<output>
				<port id="5" precision="FP32">
					<dim>-1</dim>
					<dim>32</dim>
					<dim>-1</dim>
					<dim>-1</dim>
				</port>
			</output>
		</layer>
		<layer id="188" name="/model.4/Concat" type="Concat" version="opset1">
			<data axis="1" />
			<input>
				<port id="0" precision="FP32">
					<dim>-1</dim>
					<dim>32</dim>
					<dim>-1</dim>
					<dim>-1</dim>
				</port>
				<port id="1" precision="FP32">
					<dim>-1</dim>
					<dim>32</dim>
					<dim>-1</dim>
					<dim>-1</dim>
				</port>
				<port id="2" precision="FP32">
					<dim>-1</dim>
					<dim>32</dim>
					<dim>-1</dim>
					<dim>-1</dim>
				</port>
				<port id="3" precision="FP32">
					<dim>-1</dim>
					<dim>32</dim>
					<dim>-1</dim>
					<dim>-1</dim>
				</port>
			</input>
			<output>
				<port id="4" precision="FP32" names="/model.4/Concat_output_0">
					<dim>-1</dim>
					<dim>128</dim>
					<dim>-1</dim>
					<dim>-1</dim>
				</port>
			</output>
		</layer>
		<layer id="189" name="model.4.cv2.conv.weight6838334/quantized995215466" type="Const" version="opset1">
			<data element_type="i8" shape="64, 128, 1, 1" offset="74928" size="8192" />
			<output>
				<port id="0" precision="I8">
					<dim>64</dim>
					<dim>128</dim>
					<dim>1</dim>
					<dim>1</dim>
				</port>
			</output>
		</layer>
		<layer id="190" name="model.4.cv2.conv.weight6838334/quantized/to_f32" type="Convert" version="opset1">
			<data destination_type="f32" />
			<input>
				<port id="0" precision="I8">
					<dim>64</dim>
					<dim>128</dim>
					<dim>1</dim>
					<dim>1</dim>
				</port>
			</input>
			<output>
				<port id="1" precision="FP32">
					<dim>64</dim>
					<dim>128</dim>
					<dim>1</dim>
					<dim>1</dim>
				</port>
			</output>
		</layer>
		<layer id="191" name="/model.4/cv2/conv/Conv/WithoutBiases/fq_weights_1/scale996014257" type="Const" version="opset1">
			<data element_type="f32" shape="64, 1, 1, 1" offset="83120" size="256" />
			<output>
				<port id="0" precision="FP32">
					<dim>64</dim>
					<dim>1</dim>
					<dim>1</dim>
					<dim>1</dim>
				</port>
			</output>
		</layer>
		<layer id="192" name="/model.4/cv2/conv/Conv/WithoutBiases/fq_weights_1/mulpiply_by_scale" type="Multiply" version="opset1">
			<data auto_broadcast="numpy" />
			<input>
				<port id="0" precision="FP32">
					<dim>64</dim>
					<dim>128</dim>
					<dim>1</dim>
					<dim>1</dim>
				</port>
				<port id="1" precision="FP32">
					<dim>64</dim>
					<dim>1</dim>
					<dim>1</dim>
					<dim>1</dim>
				</port>
			</input>
			<output>
				<port id="2" precision="FP32">
					<dim>64</dim>
					<dim>128</dim>
					<dim>1</dim>
					<dim>1</dim>
				</port>
			</output>
		</layer>
		<layer id="193" name="/model.4/cv2/conv/Conv/WithoutBiases" type="Convolution" version="opset1">
			<data strides="1, 1" dilations="1, 1" pads_begin="0, 0" pads_end="0, 0" auto_pad="explicit" />
			<input>
				<port id="0" precision="FP32">
					<dim>-1</dim>
					<dim>128</dim>
					<dim>-1</dim>
					<dim>-1</dim>
				</port>
				<port id="1" precision="FP32">
					<dim>64</dim>
					<dim>128</dim>
					<dim>1</dim>
					<dim>1</dim>
				</port>
			</input>
			<output>
				<port id="2" precision="FP32">
					<dim>-1</dim>
					<dim>64</dim>
					<dim>-1</dim>
					<dim>-1</dim>
				</port>
			</output>
		</layer>
		<layer id="194" name="Reshape_8193568515157" type="Const" version="opset1">
			<data element_type="f32" shape="1, 64, 1, 1" offset="83376" size="256" />
			<output>
				<port id="0" precision="FP32">
					<dim>1</dim>
					<dim>64</dim>
					<dim>1</dim>
					<dim>1</dim>
				</port>
			</output>
		</layer>
		<layer id="195" name="/model.4/cv2/conv/Conv" type="Add" version="opset1">
			<data auto_broadcast="numpy" />
			<input>
				<port id="0" precision="FP32">
					<dim>-1</dim>
					<dim>64</dim>
					<dim>-1</dim>
					<dim>-1</dim>
				</port>
				<port id="1" precision="FP32">
					<dim>1</dim>
					<dim>64</dim>
					<dim>1</dim>
					<dim>1</dim>
				</port>
			</input>
			<output>
				<port id="2" precision="FP32" names="/model.4/cv2/conv/Conv_output_0">
					<dim>-1</dim>
					<dim>64</dim>
					<dim>-1</dim>
					<dim>-1</dim>
				</port>
			</output>
		</layer>
		<layer id="196" name="/model.4/cv2/act/Mul" type="Swish" version="opset4">
			<input>
				<port id="0" precision="FP32">
					<dim>-1</dim>
					<dim>64</dim>
					<dim>-1</dim>
					<dim>-1</dim>
				</port>
			</input>
			<output>
				<port id="1" precision="FP32" names="/model.4/cv2/act/Mul_output_0">
					<dim>-1</dim>
					<dim>64</dim>
					<dim>-1</dim>
					<dim>-1</dim>
				</port>
			</output>
		</layer>
		<layer id="197" name="4540454414170" type="Const" version="opset1">
			<data element_type="f32" shape="1, 1, 1, 1" offset="83632" size="4" />
			<output>
				<port id="0" precision="FP32">
					<dim>1</dim>
					<dim>1</dim>
					<dim>1</dim>
					<dim>1</dim>
				</port>
			</output>
		</layer>
		<layer id="198" name="4541454515508" type="Const" version="opset1">
			<data element_type="f32" shape="1, 1, 1, 1" offset="83636" size="4" />
			<output>
				<port id="0" precision="FP32">
					<dim>1</dim>
					<dim>1</dim>
					<dim>1</dim>
					<dim>1</dim>
				</port>
			</output>
		</layer>
		<layer id="199" name="4542454615055" type="Const" version="opset1">
			<data element_type="f32" shape="1, 1, 1, 1" offset="83632" size="4" />
			<output>
				<port id="0" precision="FP32">
					<dim>1</dim>
					<dim>1</dim>
					<dim>1</dim>
					<dim>1</dim>
				</port>
			</output>
		</layer>
		<layer id="200" name="4543454715034" type="Const" version="opset1">
			<data element_type="f32" shape="1, 1, 1, 1" offset="83636" size="4" />
			<output>
				<port id="0" precision="FP32">
					<dim>1</dim>
					<dim>1</dim>
					<dim>1</dim>
					<dim>1</dim>
				</port>
			</output>
		</layer>
		<layer id="201" name="/model.14/Concat/fq_input_1" type="FakeQuantize" version="opset1">
			<data levels="256" auto_broadcast="numpy" />
			<input>
				<port id="0" precision="FP32">
					<dim>-1</dim>
					<dim>64</dim>
					<dim>-1</dim>
					<dim>-1</dim>
				</port>
				<port id="1" precision="FP32">
					<dim>1</dim>
					<dim>1</dim>
					<dim>1</dim>
					<dim>1</dim>
				</port>
				<port id="2" precision="FP32">
					<dim>1</dim>
					<dim>1</dim>
					<dim>1</dim>
					<dim>1</dim>
				</port>
				<port id="3" precision="FP32">
					<dim>1</dim>
					<dim>1</dim>
					<dim>1</dim>
					<dim>1</dim>
				</port>
				<port id="4" precision="FP32">
					<dim>1</dim>
					<dim>1</dim>
					<dim>1</dim>
					<dim>1</dim>
				</port>
			</input>
			<output>
				<port id="5" precision="FP32">
					<dim>-1</dim>
					<dim>64</dim>
					<dim>-1</dim>
					<dim>-1</dim>
				</port>
			</output>
		</layer>
		<layer id="202" name="model.5.conv.weight6888336/quantized920215325" type="Const" version="opset1">
			<data element_type="i8" shape="128, 64, 3, 3" offset="83640" size="73728" />
			<output>
				<port id="0" precision="I8">
					<dim>128</dim>
					<dim>64</dim>
					<dim>3</dim>
					<dim>3</dim>
				</port>
			</output>
		</layer>
		<layer id="203" name="model.5.conv.weight6888336/quantized/to_f32" type="Convert" version="opset1">
			<data destination_type="f32" />
			<input>
				<port id="0" precision="I8">
					<dim>128</dim>
					<dim>64</dim>
					<dim>3</dim>
					<dim>3</dim>
				</port>
			</input>
			<output>
				<port id="1" precision="FP32">
					<dim>128</dim>
					<dim>64</dim>
					<dim>3</dim>
					<dim>3</dim>
				</port>
			</output>
		</layer>
		<layer id="204" name="/model.5/conv/Conv/WithoutBiases/fq_weights_1/scale921015493" type="Const" version="opset1">
			<data element_type="f32" shape="128, 1, 1, 1" offset="157368" size="512" />
			<output>
				<port id="0" precision="FP32">
					<dim>128</dim>
					<dim>1</dim>
					<dim>1</dim>
					<dim>1</dim>
				</port>
			</output>
		</layer>
		<layer id="205" name="/model.5/conv/Conv/WithoutBiases/fq_weights_1/mulpiply_by_scale" type="Multiply" version="opset1">
			<data auto_broadcast="numpy" />
			<input>
				<port id="0" precision="FP32">
					<dim>128</dim>
					<dim>64</dim>
					<dim>3</dim>
					<dim>3</dim>
				</port>
				<port id="1" precision="FP32">
					<dim>128</dim>
					<dim>1</dim>
					<dim>1</dim>
					<dim>1</dim>
				</port>
			</input>
			<output>
				<port id="2" precision="FP32">
					<dim>128</dim>
					<dim>64</dim>
					<dim>3</dim>
					<dim>3</dim>
				</port>
			</output>
		</layer>
		<layer id="206" name="/model.5/conv/Conv/WithoutBiases" type="Convolution" version="opset1">
			<data strides="2, 2" dilations="1, 1" pads_begin="1, 1" pads_end="1, 1" auto_pad="explicit" />
			<input>
				<port id="0" precision="FP32">
					<dim>-1</dim>
					<dim>64</dim>
					<dim>-1</dim>
					<dim>-1</dim>
				</port>
				<port id="1" precision="FP32">
					<dim>128</dim>
					<dim>64</dim>
					<dim>3</dim>
					<dim>3</dim>
				</port>
			</input>
			<output>
				<port id="2" precision="FP32">
					<dim>-1</dim>
					<dim>128</dim>
					<dim>-1</dim>
					<dim>-1</dim>
				</port>
			</output>
		</layer>
		<layer id="207" name="Reshape_8198569014164" type="Const" version="opset1">
			<data element_type="f32" shape="1, 128, 1, 1" offset="157880" size="512" />
			<output>
				<port id="0" precision="FP32">
					<dim>1</dim>
					<dim>128</dim>
					<dim>1</dim>
					<dim>1</dim>
				</port>
			</output>
		</layer>
		<layer id="208" name="/model.5/conv/Conv" type="Add" version="opset1">
			<data auto_broadcast="numpy" />
			<input>
				<port id="0" precision="FP32">
					<dim>-1</dim>
					<dim>128</dim>
					<dim>-1</dim>
					<dim>-1</dim>
				</port>
				<port id="1" precision="FP32">
					<dim>1</dim>
					<dim>128</dim>
					<dim>1</dim>
					<dim>1</dim>
				</port>
			</input>
			<output>
				<port id="2" precision="FP32" names="/model.5/conv/Conv_output_0">
					<dim>-1</dim>
					<dim>128</dim>
					<dim>-1</dim>
					<dim>-1</dim>
				</port>
			</output>
		</layer>
		<layer id="209" name="/model.5/act/Mul" type="Swish" version="opset4">
			<input>
				<port id="0" precision="FP32">
					<dim>-1</dim>
					<dim>128</dim>
					<dim>-1</dim>
					<dim>-1</dim>
				</port>
			</input>
			<output>
				<port id="1" precision="FP32" names="/model.5/act/Mul_output_0">
					<dim>-1</dim>
					<dim>128</dim>
					<dim>-1</dim>
					<dim>-1</dim>
				</port>
			</output>
		</layer>
		<layer id="210" name="2606261015346" type="Const" version="opset1">
			<data element_type="f32" shape="1, 1, 1, 1" offset="158392" size="4" />
			<output>
				<port id="0" precision="FP32">
					<dim>1</dim>
					<dim>1</dim>
					<dim>1</dim>
					<dim>1</dim>
				</port>
			</output>
		</layer>
		<layer id="211" name="2607261114986" type="Const" version="opset1">
			<data element_type="f32" shape="1, 1, 1, 1" offset="158396" size="4" />
			<output>
				<port id="0" precision="FP32">
					<dim>1</dim>
					<dim>1</dim>
					<dim>1</dim>
					<dim>1</dim>
				</port>
			</output>
		</layer>
		<layer id="212" name="2608261215451" type="Const" version="opset1">
			<data element_type="f32" shape="1, 1, 1, 1" offset="158392" size="4" />
			<output>
				<port id="0" precision="FP32">
					<dim>1</dim>
					<dim>1</dim>
					<dim>1</dim>
					<dim>1</dim>
				</port>
			</output>
		</layer>
		<layer id="213" name="2609261314569" type="Const" version="opset1">
			<data element_type="f32" shape="1, 1, 1, 1" offset="158396" size="4" />
			<output>
				<port id="0" precision="FP32">
					<dim>1</dim>
					<dim>1</dim>
					<dim>1</dim>
					<dim>1</dim>
				</port>
			</output>
		</layer>
		<layer id="214" name="/model.6/cv1/conv/Conv/WithoutBiases/fq_input_0" type="FakeQuantize" version="opset1">
			<data levels="256" auto_broadcast="numpy" />
			<input>
				<port id="0" precision="FP32">
					<dim>-1</dim>
					<dim>128</dim>
					<dim>-1</dim>
					<dim>-1</dim>
				</port>
				<port id="1" precision="FP32">
					<dim>1</dim>
					<dim>1</dim>
					<dim>1</dim>
					<dim>1</dim>
				</port>
				<port id="2" precision="FP32">
					<dim>1</dim>
					<dim>1</dim>
					<dim>1</dim>
					<dim>1</dim>
				</port>
				<port id="3" precision="FP32">
					<dim>1</dim>
					<dim>1</dim>
					<dim>1</dim>
					<dim>1</dim>
				</port>
				<port id="4" precision="FP32">
					<dim>1</dim>
					<dim>1</dim>
					<dim>1</dim>
					<dim>1</dim>
				</port>
			</input>
			<output>
				<port id="5" precision="FP32">
					<dim>-1</dim>
					<dim>128</dim>
					<dim>-1</dim>
					<dim>-1</dim>
				</port>
			</output>
		</layer>
		<layer id="215" name="model.6.cv1.conv.weight6938338/quantized941215376" type="Const" version="opset1">
			<data element_type="i8" shape="128, 128, 1, 1" offset="158400" size="16384" />
			<output>
				<port id="0" precision="I8">
					<dim>128</dim>
					<dim>128</dim>
					<dim>1</dim>
					<dim>1</dim>
				</port>
			</output>
		</layer>
		<layer id="216" name="model.6.cv1.conv.weight6938338/quantized/to_f32" type="Convert" version="opset1">
			<data destination_type="f32" />
			<input>
				<port id="0" precision="I8">
					<dim>128</dim>
					<dim>128</dim>
					<dim>1</dim>
					<dim>1</dim>
				</port>
			</input>
			<output>
				<port id="1" precision="FP32">
					<dim>128</dim>
					<dim>128</dim>
					<dim>1</dim>
					<dim>1</dim>
				</port>
			</output>
		</layer>
		<layer id="217" name="/model.6/cv1/conv/Conv/WithoutBiases/fq_weights_1/scale942015679" type="Const" version="opset1">
			<data element_type="f32" shape="128, 1, 1, 1" offset="174784" size="512" />
			<output>
				<port id="0" precision="FP32">
					<dim>128</dim>
					<dim>1</dim>
					<dim>1</dim>
					<dim>1</dim>
				</port>
			</output>
		</layer>
		<layer id="218" name="/model.6/cv1/conv/Conv/WithoutBiases/fq_weights_1/mulpiply_by_scale" type="Multiply" version="opset1">
			<data auto_broadcast="numpy" />
			<input>
				<port id="0" precision="FP32">
					<dim>128</dim>
					<dim>128</dim>
					<dim>1</dim>
					<dim>1</dim>
				</port>
				<port id="1" precision="FP32">
					<dim>128</dim>
					<dim>1</dim>
					<dim>1</dim>
					<dim>1</dim>
				</port>
			</input>
			<output>
				<port id="2" precision="FP32">
					<dim>128</dim>
					<dim>128</dim>
					<dim>1</dim>
					<dim>1</dim>
				</port>
			</output>
		</layer>
		<layer id="219" name="/model.6/cv1/conv/Conv/WithoutBiases" type="Convolution" version="opset1">
			<data strides="1, 1" dilations="1, 1" pads_begin="0, 0" pads_end="0, 0" auto_pad="explicit" />
			<input>
				<port id="0" precision="FP32">
					<dim>-1</dim>
					<dim>128</dim>
					<dim>-1</dim>
					<dim>-1</dim>
				</port>
				<port id="1" precision="FP32">
					<dim>128</dim>
					<dim>128</dim>
					<dim>1</dim>
					<dim>1</dim>
				</port>
			</input>
			<output>
				<port id="2" precision="FP32">
					<dim>-1</dim>
					<dim>128</dim>
					<dim>-1</dim>
					<dim>-1</dim>
				</port>
			</output>
		</layer>
		<layer id="220" name="Reshape_8203569515544" type="Const" version="opset1">
			<data element_type="f32" shape="1, 128, 1, 1" offset="175296" size="512" />
			<output>
				<port id="0" precision="FP32">
					<dim>1</dim>
					<dim>128</dim>
					<dim>1</dim>
					<dim>1</dim>
				</port>
			</output>
		</layer>
		<layer id="221" name="/model.6/cv1/conv/Conv" type="Add" version="opset1">
			<data auto_broadcast="numpy" />
			<input>
				<port id="0" precision="FP32">
					<dim>-1</dim>
					<dim>128</dim>
					<dim>-1</dim>
					<dim>-1</dim>
				</port>
				<port id="1" precision="FP32">
					<dim>1</dim>
					<dim>128</dim>
					<dim>1</dim>
					<dim>1</dim>
				</port>
			</input>
			<output>
				<port id="2" precision="FP32" names="/model.6/cv1/conv/Conv_output_0">
					<dim>-1</dim>
					<dim>128</dim>
					<dim>-1</dim>
					<dim>-1</dim>
				</port>
			</output>
		</layer>
		<layer id="222" name="/model.6/cv1/act/Mul" type="Swish" version="opset4">
			<input>
				<port id="0" precision="FP32">
					<dim>-1</dim>
					<dim>128</dim>
					<dim>-1</dim>
					<dim>-1</dim>
				</port>
			</input>
			<output>
				<port id="1" precision="FP32" names="/model.6/cv1/act/Mul_output_0">
					<dim>-1</dim>
					<dim>128</dim>
					<dim>-1</dim>
					<dim>-1</dim>
				</port>
			</output>
		</layer>
		<layer id="223" name="4960496415307" type="Const" version="opset1">
			<data element_type="f32" shape="1, 1, 1, 1" offset="175808" size="4" />
			<output>
				<port id="0" precision="FP32">
					<dim>1</dim>
					<dim>1</dim>
					<dim>1</dim>
					<dim>1</dim>
				</port>
			</output>
		</layer>
		<layer id="224" name="4961496514590" type="Const" version="opset1">
			<data element_type="f32" shape="1, 1, 1, 1" offset="175812" size="4" />
			<output>
				<port id="0" precision="FP32">
					<dim>1</dim>
					<dim>1</dim>
					<dim>1</dim>
					<dim>1</dim>
				</port>
			</output>
		</layer>
		<layer id="225" name="4962496614515" type="Const" version="opset1">
			<data element_type="f32" shape="1, 1, 1, 1" offset="175808" size="4" />
			<output>
				<port id="0" precision="FP32">
					<dim>1</dim>
					<dim>1</dim>
					<dim>1</dim>
					<dim>1</dim>
				</port>
			</output>
		</layer>
		<layer id="226" name="4963496715517" type="Const" version="opset1">
			<data element_type="f32" shape="1, 1, 1, 1" offset="175812" size="4" />
			<output>
				<port id="0" precision="FP32">
					<dim>1</dim>
					<dim>1</dim>
					<dim>1</dim>
					<dim>1</dim>
				</port>
			</output>
		</layer>
		<layer id="227" name="/model.6/Split/fq_input_0" type="FakeQuantize" version="opset1">
			<data levels="256" auto_broadcast="numpy" />
			<input>
				<port id="0" precision="FP32">
					<dim>-1</dim>
					<dim>128</dim>
					<dim>-1</dim>
					<dim>-1</dim>
				</port>
				<port id="1" precision="FP32">
					<dim>1</dim>
					<dim>1</dim>
					<dim>1</dim>
					<dim>1</dim>
				</port>
				<port id="2" precision="FP32">
					<dim>1</dim>
					<dim>1</dim>
					<dim>1</dim>
					<dim>1</dim>
				</port>
				<port id="3" precision="FP32">
					<dim>1</dim>
					<dim>1</dim>
					<dim>1</dim>
					<dim>1</dim>
				</port>
				<port id="4" precision="FP32">
					<dim>1</dim>
					<dim>1</dim>
					<dim>1</dim>
					<dim>1</dim>
				</port>
			</input>
			<output>
				<port id="5" precision="FP32">
					<dim>-1</dim>
					<dim>128</dim>
					<dim>-1</dim>
					<dim>-1</dim>
				</port>
			</output>
		</layer>
		<layer id="228" name="Constant_8206669814173" type="Const" version="opset1">
			<data element_type="i64" shape="" offset="6736" size="8" />
			<output>
				<port id="0" precision="I64" />
			</output>
		</layer>
		<layer id="229" name="Constant_5469914458" type="Const" version="opset1">
			<data element_type="i64" shape="2" offset="175816" size="16" />
			<output>
				<port id="0" precision="I64" names="onnx::Split_188">
					<dim>2</dim>
				</port>
			</output>
		</layer>
		<layer id="230" name="/model.6/Split" type="VariadicSplit" version="opset1">
			<input>
				<port id="0" precision="FP32">
					<dim>-1</dim>
					<dim>128</dim>
					<dim>-1</dim>
					<dim>-1</dim>
				</port>
				<port id="1" precision="I64" />
				<port id="2" precision="I64">
					<dim>2</dim>
				</port>
			</input>
			<output>
				<port id="3" precision="FP32" names="/model.6/Split_output_0">
					<dim>-1</dim>
					<dim>64</dim>
					<dim>-1</dim>
					<dim>-1</dim>
				</port>
				<port id="4" precision="FP32" names="/model.6/Split_output_1">
					<dim>-1</dim>
					<dim>64</dim>
					<dim>-1</dim>
					<dim>-1</dim>
				</port>
			</output>
		</layer>
		<layer id="231" name="model.6.m.0.cv1.conv.weight7028342/quantized1058215184" type="Const" version="opset1">
			<data element_type="i8" shape="64, 64, 3, 3" offset="175832" size="36864" />
			<output>
				<port id="0" precision="I8">
					<dim>64</dim>
					<dim>64</dim>
					<dim>3</dim>
					<dim>3</dim>
				</port>
			</output>
		</layer>
		<layer id="232" name="model.6.m.0.cv1.conv.weight7028342/quantized/to_f32" type="Convert" version="opset1">
			<data destination_type="f32" />
			<input>
				<port id="0" precision="I8">
					<dim>64</dim>
					<dim>64</dim>
					<dim>3</dim>
					<dim>3</dim>
				</port>
			</input>
			<output>
				<port id="1" precision="FP32">
					<dim>64</dim>
					<dim>64</dim>
					<dim>3</dim>
					<dim>3</dim>
				</port>
			</output>
		</layer>
		<layer id="233" name="/model.6/m.0/cv1/conv/Conv/WithoutBiases/fq_weights_1/scale1059014764" type="Const" version="opset1">
			<data element_type="f32" shape="64, 1, 1, 1" offset="212696" size="256" />
			<output>
				<port id="0" precision="FP32">
					<dim>64</dim>
					<dim>1</dim>
					<dim>1</dim>
					<dim>1</dim>
				</port>
			</output>
		</layer>
		<layer id="234" name="/model.6/m.0/cv1/conv/Conv/WithoutBiases/fq_weights_1/mulpiply_by_scale" type="Multiply" version="opset1">
			<data auto_broadcast="numpy" />
			<input>
				<port id="0" precision="FP32">
					<dim>64</dim>
					<dim>64</dim>
					<dim>3</dim>
					<dim>3</dim>
				</port>
				<port id="1" precision="FP32">
					<dim>64</dim>
					<dim>1</dim>
					<dim>1</dim>
					<dim>1</dim>
				</port>
			</input>
			<output>
				<port id="2" precision="FP32">
					<dim>64</dim>
					<dim>64</dim>
					<dim>3</dim>
					<dim>3</dim>
				</port>
			</output>
		</layer>
		<layer id="235" name="/model.6/m.0/cv1/conv/Conv/WithoutBiases" type="Convolution" version="opset1">
			<data strides="1, 1" dilations="1, 1" pads_begin="1, 1" pads_end="1, 1" auto_pad="explicit" />
			<input>
				<port id="0" precision="FP32">
					<dim>-1</dim>
					<dim>64</dim>
					<dim>-1</dim>
					<dim>-1</dim>
				</port>
				<port id="1" precision="FP32">
					<dim>64</dim>
					<dim>64</dim>
					<dim>3</dim>
					<dim>3</dim>
				</port>
			</input>
			<output>
				<port id="2" precision="FP32">
					<dim>-1</dim>
					<dim>64</dim>
					<dim>-1</dim>
					<dim>-1</dim>
				</port>
			</output>
		</layer>
		<layer id="236" name="Reshape_8208870414881" type="Const" version="opset1">
			<data element_type="f32" shape="1, 64, 1, 1" offset="212952" size="256" />
			<output>
				<port id="0" precision="FP32">
					<dim>1</dim>
					<dim>64</dim>
					<dim>1</dim>
					<dim>1</dim>
				</port>
			</output>
		</layer>
		<layer id="237" name="/model.6/m.0/cv1/conv/Conv" type="Add" version="opset1">
			<data auto_broadcast="numpy" />
			<input>
				<port id="0" precision="FP32">
					<dim>-1</dim>
					<dim>64</dim>
					<dim>-1</dim>
					<dim>-1</dim>
				</port>
				<port id="1" precision="FP32">
					<dim>1</dim>
					<dim>64</dim>
					<dim>1</dim>
					<dim>1</dim>
				</port>
			</input>
			<output>
				<port id="2" precision="FP32" names="/model.6/m.0/cv1/conv/Conv_output_0">
					<dim>-1</dim>
					<dim>64</dim>
					<dim>-1</dim>
					<dim>-1</dim>
				</port>
			</output>
		</layer>
		<layer id="238" name="/model.6/m.0/cv1/act/Mul" type="Swish" version="opset4">
			<input>
				<port id="0" precision="FP32">
					<dim>-1</dim>
					<dim>64</dim>
					<dim>-1</dim>
					<dim>-1</dim>
				</port>
			</input>
			<output>
				<port id="1" precision="FP32" names="/model.6/m.0/cv1/act/Mul_output_0">
					<dim>-1</dim>
					<dim>64</dim>
					<dim>-1</dim>
					<dim>-1</dim>
				</port>
			</output>
		</layer>
		<layer id="239" name="2626263015103" type="Const" version="opset1">
			<data element_type="f32" shape="1, 1, 1, 1" offset="5440" size="4" />
			<output>
				<port id="0" precision="FP32">
					<dim>1</dim>
					<dim>1</dim>
					<dim>1</dim>
					<dim>1</dim>
				</port>
			</output>
		</layer>
		<layer id="240" name="2627263114149" type="Const" version="opset1">
			<data element_type="f32" shape="1, 1, 1, 1" offset="213208" size="4" />
			<output>
				<port id="0" precision="FP32">
					<dim>1</dim>
					<dim>1</dim>
					<dim>1</dim>
					<dim>1</dim>
				</port>
			</output>
		</layer>
		<layer id="241" name="2628263214131" type="Const" version="opset1">
			<data element_type="f32" shape="1, 1, 1, 1" offset="5440" size="4" />
			<output>
				<port id="0" precision="FP32">
					<dim>1</dim>
					<dim>1</dim>
					<dim>1</dim>
					<dim>1</dim>
				</port>
			</output>
		</layer>
		<layer id="242" name="2629263315358" type="Const" version="opset1">
			<data element_type="f32" shape="1, 1, 1, 1" offset="213208" size="4" />
			<output>
				<port id="0" precision="FP32">
					<dim>1</dim>
					<dim>1</dim>
					<dim>1</dim>
					<dim>1</dim>
				</port>
			</output>
		</layer>
		<layer id="243" name="/model.6/m.0/cv2/conv/Conv/WithoutBiases/fq_input_0" type="FakeQuantize" version="opset1">
			<data levels="256" auto_broadcast="numpy" />
			<input>
				<port id="0" precision="FP32">
					<dim>-1</dim>
					<dim>64</dim>
					<dim>-1</dim>
					<dim>-1</dim>
				</port>
				<port id="1" precision="FP32">
					<dim>1</dim>
					<dim>1</dim>
					<dim>1</dim>
					<dim>1</dim>
				</port>
				<port id="2" precision="FP32">
					<dim>1</dim>
					<dim>1</dim>
					<dim>1</dim>
					<dim>1</dim>
				</port>
				<port id="3" precision="FP32">
					<dim>1</dim>
					<dim>1</dim>
					<dim>1</dim>
					<dim>1</dim>
				</port>
				<port id="4" precision="FP32">
					<dim>1</dim>
					<dim>1</dim>
					<dim>1</dim>
					<dim>1</dim>
				</port>
			</input>
			<output>
				<port id="5" precision="FP32">
					<dim>-1</dim>
					<dim>64</dim>
					<dim>-1</dim>
					<dim>-1</dim>
				</port>
			</output>
		</layer>
		<layer id="244" name="model.6.m.0.cv2.conv.weight7078344/quantized932215322" type="Const" version="opset1">
			<data element_type="i8" shape="64, 64, 3, 3" offset="213212" size="36864" />
			<output>
				<port id="0" precision="I8">
					<dim>64</dim>
					<dim>64</dim>
					<dim>3</dim>
					<dim>3</dim>
				</port>
			</output>
		</layer>
		<layer id="245" name="model.6.m.0.cv2.conv.weight7078344/quantized/to_f32" type="Convert" version="opset1">
			<data destination_type="f32" />
			<input>
				<port id="0" precision="I8">
					<dim>64</dim>
					<dim>64</dim>
					<dim>3</dim>
					<dim>3</dim>
				</port>
			</input>
			<output>
				<port id="1" precision="FP32">
					<dim>64</dim>
					<dim>64</dim>
					<dim>3</dim>
					<dim>3</dim>
				</port>
			</output>
		</layer>
		<layer id="246" name="/model.6/m.0/cv2/conv/Conv/WithoutBiases/fq_weights_1/scale933014374" type="Const" version="opset1">
			<data element_type="f32" shape="64, 1, 1, 1" offset="250076" size="256" />
			<output>
				<port id="0" precision="FP32">
					<dim>64</dim>
					<dim>1</dim>
					<dim>1</dim>
					<dim>1</dim>
				</port>
			</output>
		</layer>
		<layer id="247" name="/model.6/m.0/cv2/conv/Conv/WithoutBiases/fq_weights_1/mulpiply_by_scale" type="Multiply" version="opset1">
			<data auto_broadcast="numpy" />
			<input>
				<port id="0" precision="FP32">
					<dim>64</dim>
					<dim>64</dim>
					<dim>3</dim>
					<dim>3</dim>
				</port>
				<port id="1" precision="FP32">
					<dim>64</dim>
					<dim>1</dim>
					<dim>1</dim>
					<dim>1</dim>
				</port>
			</input>
			<output>
				<port id="2" precision="FP32">
					<dim>64</dim>
					<dim>64</dim>
					<dim>3</dim>
					<dim>3</dim>
				</port>
			</output>
		</layer>
		<layer id="248" name="/model.6/m.0/cv2/conv/Conv/WithoutBiases" type="Convolution" version="opset1">
			<data strides="1, 1" dilations="1, 1" pads_begin="1, 1" pads_end="1, 1" auto_pad="explicit" />
			<input>
				<port id="0" precision="FP32">
					<dim>-1</dim>
					<dim>64</dim>
					<dim>-1</dim>
					<dim>-1</dim>
				</port>
				<port id="1" precision="FP32">
					<dim>64</dim>
					<dim>64</dim>
					<dim>3</dim>
					<dim>3</dim>
				</port>
			</input>
			<output>
				<port id="2" precision="FP32">
					<dim>-1</dim>
					<dim>64</dim>
					<dim>-1</dim>
					<dim>-1</dim>
				</port>
			</output>
		</layer>
		<layer id="249" name="Reshape_8213870914401" type="Const" version="opset1">
			<data element_type="f32" shape="1, 64, 1, 1" offset="250332" size="256" />
			<output>
				<port id="0" precision="FP32">
					<dim>1</dim>
					<dim>64</dim>
					<dim>1</dim>
					<dim>1</dim>
				</port>
			</output>
		</layer>
		<layer id="250" name="/model.6/m.0/cv2/conv/Conv" type="Add" version="opset1">
			<data auto_broadcast="numpy" />
			<input>
				<port id="0" precision="FP32">
					<dim>-1</dim>
					<dim>64</dim>
					<dim>-1</dim>
					<dim>-1</dim>
				</port>
				<port id="1" precision="FP32">
					<dim>1</dim>
					<dim>64</dim>
					<dim>1</dim>
					<dim>1</dim>
				</port>
			</input>
			<output>
				<port id="2" precision="FP32" names="/model.6/m.0/cv2/conv/Conv_output_0">
					<dim>-1</dim>
					<dim>64</dim>
					<dim>-1</dim>
					<dim>-1</dim>
				</port>
			</output>
		</layer>
		<layer id="251" name="/model.6/m.0/cv2/act/Mul" type="Swish" version="opset4">
			<input>
				<port id="0" precision="FP32">
					<dim>-1</dim>
					<dim>64</dim>
					<dim>-1</dim>
					<dim>-1</dim>
				</port>
			</input>
			<output>
				<port id="1" precision="FP32" names="/model.6/m.0/cv2/act/Mul_output_0">
					<dim>-1</dim>
					<dim>64</dim>
					<dim>-1</dim>
					<dim>-1</dim>
				</port>
			</output>
		</layer>
		<layer id="252" name="3036304015280" type="Const" version="opset1">
			<data element_type="f32" shape="1, 1, 1, 1" offset="250588" size="4" />
			<output>
				<port id="0" precision="FP32">
					<dim>1</dim>
					<dim>1</dim>
					<dim>1</dim>
					<dim>1</dim>
				</port>
			</output>
		</layer>
		<layer id="253" name="3037304114800" type="Const" version="opset1">
			<data element_type="f32" shape="1, 1, 1, 1" offset="250592" size="4" />
			<output>
				<port id="0" precision="FP32">
					<dim>1</dim>
					<dim>1</dim>
					<dim>1</dim>
					<dim>1</dim>
				</port>
			</output>
		</layer>
		<layer id="254" name="3038304215724" type="Const" version="opset1">
			<data element_type="f32" shape="1, 1, 1, 1" offset="250588" size="4" />
			<output>
				<port id="0" precision="FP32">
					<dim>1</dim>
					<dim>1</dim>
					<dim>1</dim>
					<dim>1</dim>
				</port>
			</output>
		</layer>
		<layer id="255" name="3039304314422" type="Const" version="opset1">
			<data element_type="f32" shape="1, 1, 1, 1" offset="250592" size="4" />
			<output>
				<port id="0" precision="FP32">
					<dim>1</dim>
					<dim>1</dim>
					<dim>1</dim>
					<dim>1</dim>
				</port>
			</output>
		</layer>
		<layer id="256" name="/model.6/m.0/Add/fq_input_1" type="FakeQuantize" version="opset1">
			<data levels="256" auto_broadcast="numpy" />
			<input>
				<port id="0" precision="FP32">
					<dim>-1</dim>
					<dim>64</dim>
					<dim>-1</dim>
					<dim>-1</dim>
				</port>
				<port id="1" precision="FP32">
					<dim>1</dim>
					<dim>1</dim>
					<dim>1</dim>
					<dim>1</dim>
				</port>
				<port id="2" precision="FP32">
					<dim>1</dim>
					<dim>1</dim>
					<dim>1</dim>
					<dim>1</dim>
				</port>
				<port id="3" precision="FP32">
					<dim>1</dim>
					<dim>1</dim>
					<dim>1</dim>
					<dim>1</dim>
				</port>
				<port id="4" precision="FP32">
					<dim>1</dim>
					<dim>1</dim>
					<dim>1</dim>
					<dim>1</dim>
				</port>
			</input>
			<output>
				<port id="5" precision="FP32">
					<dim>-1</dim>
					<dim>64</dim>
					<dim>-1</dim>
					<dim>-1</dim>
				</port>
			</output>
		</layer>
		<layer id="257" name="/model.6/m.0/Add" type="Add" version="opset1">
			<data auto_broadcast="numpy" />
			<input>
				<port id="0" precision="FP32">
					<dim>-1</dim>
					<dim>64</dim>
					<dim>-1</dim>
					<dim>-1</dim>
				</port>
				<port id="1" precision="FP32">
					<dim>-1</dim>
					<dim>64</dim>
					<dim>-1</dim>
					<dim>-1</dim>
				</port>
			</input>
			<output>
				<port id="2" precision="FP32" names="/model.6/m.0/Add_output_0">
					<dim>-1</dim>
					<dim>64</dim>
					<dim>-1</dim>
					<dim>-1</dim>
				</port>
			</output>
		</layer>
		<layer id="258" name="4940494415058" type="Const" version="opset1">
			<data element_type="f32" shape="1, 1, 1, 1" offset="175808" size="4" />
			<output>
				<port id="0" precision="FP32">
					<dim>1</dim>
					<dim>1</dim>
					<dim>1</dim>
					<dim>1</dim>
				</port>
			</output>
		</layer>
		<layer id="259" name="4941494515526" type="Const" version="opset1">
			<data element_type="f32" shape="1, 1, 1, 1" offset="175812" size="4" />
			<output>
				<port id="0" precision="FP32">
					<dim>1</dim>
					<dim>1</dim>
					<dim>1</dim>
					<dim>1</dim>
				</port>
			</output>
		</layer>
		<layer id="260" name="4942494615121" type="Const" version="opset1">
			<data element_type="f32" shape="1, 1, 1, 1" offset="175808" size="4" />
			<output>
				<port id="0" precision="FP32">
					<dim>1</dim>
					<dim>1</dim>
					<dim>1</dim>
					<dim>1</dim>
				</port>
			</output>
		</layer>
		<layer id="261" name="4943494714557" type="Const" version="opset1">
			<data element_type="f32" shape="1, 1, 1, 1" offset="175812" size="4" />
			<output>
				<port id="0" precision="FP32">
					<dim>1</dim>
					<dim>1</dim>
					<dim>1</dim>
					<dim>1</dim>
				</port>
			</output>
		</layer>
		<layer id="262" name="/model.6/Concat/fq_input_2" type="FakeQuantize" version="opset1">
			<data levels="256" auto_broadcast="numpy" />
			<input>
				<port id="0" precision="FP32">
					<dim>-1</dim>
					<dim>64</dim>
					<dim>-1</dim>
					<dim>-1</dim>
				</port>
				<port id="1" precision="FP32">
					<dim>1</dim>
					<dim>1</dim>
					<dim>1</dim>
					<dim>1</dim>
				</port>
				<port id="2" precision="FP32">
					<dim>1</dim>
					<dim>1</dim>
					<dim>1</dim>
					<dim>1</dim>
				</port>
				<port id="3" precision="FP32">
					<dim>1</dim>
					<dim>1</dim>
					<dim>1</dim>
					<dim>1</dim>
				</port>
				<port id="4" precision="FP32">
					<dim>1</dim>
					<dim>1</dim>
					<dim>1</dim>
					<dim>1</dim>
				</port>
			</input>
			<output>
				<port id="5" precision="FP32">
					<dim>-1</dim>
					<dim>64</dim>
					<dim>-1</dim>
					<dim>-1</dim>
				</port>
			</output>
		</layer>
		<layer id="263" name="model.6.m.1.cv1.conv.weight7138346/quantized935215085" type="Const" version="opset1">
			<data element_type="i8" shape="64, 64, 3, 3" offset="250596" size="36864" />
			<output>
				<port id="0" precision="I8">
					<dim>64</dim>
					<dim>64</dim>
					<dim>3</dim>
					<dim>3</dim>
				</port>
			</output>
		</layer>
		<layer id="264" name="model.6.m.1.cv1.conv.weight7138346/quantized/to_f32" type="Convert" version="opset1">
			<data destination_type="f32" />
			<input>
				<port id="0" precision="I8">
					<dim>64</dim>
					<dim>64</dim>
					<dim>3</dim>
					<dim>3</dim>
				</port>
			</input>
			<output>
				<port id="1" precision="FP32">
					<dim>64</dim>
					<dim>64</dim>
					<dim>3</dim>
					<dim>3</dim>
				</port>
			</output>
		</layer>
		<layer id="265" name="/model.6/m.1/cv1/conv/Conv/WithoutBiases/fq_weights_1/scale936014452" type="Const" version="opset1">
			<data element_type="f32" shape="64, 1, 1, 1" offset="287460" size="256" />
			<output>
				<port id="0" precision="FP32">
					<dim>64</dim>
					<dim>1</dim>
					<dim>1</dim>
					<dim>1</dim>
				</port>
			</output>
		</layer>
		<layer id="266" name="/model.6/m.1/cv1/conv/Conv/WithoutBiases/fq_weights_1/mulpiply_by_scale" type="Multiply" version="opset1">
			<data auto_broadcast="numpy" />
			<input>
				<port id="0" precision="FP32">
					<dim>64</dim>
					<dim>64</dim>
					<dim>3</dim>
					<dim>3</dim>
				</port>
				<port id="1" precision="FP32">
					<dim>64</dim>
					<dim>1</dim>
					<dim>1</dim>
					<dim>1</dim>
				</port>
			</input>
			<output>
				<port id="2" precision="FP32">
					<dim>64</dim>
					<dim>64</dim>
					<dim>3</dim>
					<dim>3</dim>
				</port>
			</output>
		</layer>
		<layer id="267" name="/model.6/m.1/cv1/conv/Conv/WithoutBiases" type="Convolution" version="opset1">
			<data strides="1, 1" dilations="1, 1" pads_begin="1, 1" pads_end="1, 1" auto_pad="explicit" />
			<input>
				<port id="0" precision="FP32">
					<dim>-1</dim>
					<dim>64</dim>
					<dim>-1</dim>
					<dim>-1</dim>
				</port>
				<port id="1" precision="FP32">
					<dim>64</dim>
					<dim>64</dim>
					<dim>3</dim>
					<dim>3</dim>
				</port>
			</input>
			<output>
				<port id="2" precision="FP32">
					<dim>-1</dim>
					<dim>64</dim>
					<dim>-1</dim>
					<dim>-1</dim>
				</port>
			</output>
		</layer>
		<layer id="268" name="Reshape_8218971515343" type="Const" version="opset1">
			<data element_type="f32" shape="1, 64, 1, 1" offset="287716" size="256" />
			<output>
				<port id="0" precision="FP32">
					<dim>1</dim>
					<dim>64</dim>
					<dim>1</dim>
					<dim>1</dim>
				</port>
			</output>
		</layer>
		<layer id="269" name="/model.6/m.1/cv1/conv/Conv" type="Add" version="opset1">
			<data auto_broadcast="numpy" />
			<input>
				<port id="0" precision="FP32">
					<dim>-1</dim>
					<dim>64</dim>
					<dim>-1</dim>
					<dim>-1</dim>
				</port>
				<port id="1" precision="FP32">
					<dim>1</dim>
					<dim>64</dim>
					<dim>1</dim>
					<dim>1</dim>
				</port>
			</input>
			<output>
				<port id="2" precision="FP32" names="/model.6/m.1/cv1/conv/Conv_output_0">
					<dim>-1</dim>
					<dim>64</dim>
					<dim>-1</dim>
					<dim>-1</dim>
				</port>
			</output>
		</layer>
		<layer id="270" name="/model.6/m.1/cv1/act/Mul" type="Swish" version="opset4">
			<input>
				<port id="0" precision="FP32">
					<dim>-1</dim>
					<dim>64</dim>
					<dim>-1</dim>
					<dim>-1</dim>
				</port>
			</input>
			<output>
				<port id="1" precision="FP32" names="/model.6/m.1/cv1/act/Mul_output_0">
					<dim>-1</dim>
					<dim>64</dim>
					<dim>-1</dim>
					<dim>-1</dim>
				</port>
			</output>
		</layer>
		<layer id="271" name="2256226014890" type="Const" version="opset1">
			<data element_type="f32" shape="1, 1, 1, 1" offset="5440" size="4" />
			<output>
				<port id="0" precision="FP32">
					<dim>1</dim>
					<dim>1</dim>
					<dim>1</dim>
					<dim>1</dim>
				</port>
			</output>
		</layer>
		<layer id="272" name="2257226114113" type="Const" version="opset1">
			<data element_type="f32" shape="1, 1, 1, 1" offset="287972" size="4" />
			<output>
				<port id="0" precision="FP32">
					<dim>1</dim>
					<dim>1</dim>
					<dim>1</dim>
					<dim>1</dim>
				</port>
			</output>
		</layer>
		<layer id="273" name="2258226215241" type="Const" version="opset1">
			<data element_type="f32" shape="1, 1, 1, 1" offset="5440" size="4" />
			<output>
				<port id="0" precision="FP32">
					<dim>1</dim>
					<dim>1</dim>
					<dim>1</dim>
					<dim>1</dim>
				</port>
			</output>
		</layer>
		<layer id="274" name="2259226314704" type="Const" version="opset1">
			<data element_type="f32" shape="1, 1, 1, 1" offset="287972" size="4" />
			<output>
				<port id="0" precision="FP32">
					<dim>1</dim>
					<dim>1</dim>
					<dim>1</dim>
					<dim>1</dim>
				</port>
			</output>
		</layer>
		<layer id="275" name="/model.6/m.1/cv2/conv/Conv/WithoutBiases/fq_input_0" type="FakeQuantize" version="opset1">
			<data levels="256" auto_broadcast="numpy" />
			<input>
				<port id="0" precision="FP32">
					<dim>-1</dim>
					<dim>64</dim>
					<dim>-1</dim>
					<dim>-1</dim>
				</port>
				<port id="1" precision="FP32">
					<dim>1</dim>
					<dim>1</dim>
					<dim>1</dim>
					<dim>1</dim>
				</port>
				<port id="2" precision="FP32">
					<dim>1</dim>
					<dim>1</dim>
					<dim>1</dim>
					<dim>1</dim>
				</port>
				<port id="3" precision="FP32">
					<dim>1</dim>
					<dim>1</dim>
					<dim>1</dim>
					<dim>1</dim>
				</port>
				<port id="4" precision="FP32">
					<dim>1</dim>
					<dim>1</dim>
					<dim>1</dim>
					<dim>1</dim>
				</port>
			</input>
			<output>
				<port id="5" precision="FP32">
					<dim>-1</dim>
					<dim>64</dim>
					<dim>-1</dim>
					<dim>-1</dim>
				</port>
			</output>
		</layer>
		<layer id="276" name="model.6.m.1.cv2.conv.weight7188348/quantized1007214545" type="Const" version="opset1">
			<data element_type="i8" shape="64, 64, 3, 3" offset="287976" size="36864" />
			<output>
				<port id="0" precision="I8">
					<dim>64</dim>
					<dim>64</dim>
					<dim>3</dim>
					<dim>3</dim>
				</port>
			</output>
		</layer>
		<layer id="277" name="model.6.m.1.cv2.conv.weight7188348/quantized/to_f32" type="Convert" version="opset1">
			<data destination_type="f32" />
			<input>
				<port id="0" precision="I8">
					<dim>64</dim>
					<dim>64</dim>
					<dim>3</dim>
					<dim>3</dim>
				</port>
			</input>
			<output>
				<port id="1" precision="FP32">
					<dim>64</dim>
					<dim>64</dim>
					<dim>3</dim>
					<dim>3</dim>
				</port>
			</output>
		</layer>
		<layer id="278" name="/model.6/m.1/cv2/conv/Conv/WithoutBiases/fq_weights_1/scale1008014260" type="Const" version="opset1">
			<data element_type="f32" shape="64, 1, 1, 1" offset="324840" size="256" />
			<output>
				<port id="0" precision="FP32">
					<dim>64</dim>
					<dim>1</dim>
					<dim>1</dim>
					<dim>1</dim>
				</port>
			</output>
		</layer>
		<layer id="279" name="/model.6/m.1/cv2/conv/Conv/WithoutBiases/fq_weights_1/mulpiply_by_scale" type="Multiply" version="opset1">
			<data auto_broadcast="numpy" />
			<input>
				<port id="0" precision="FP32">
					<dim>64</dim>
					<dim>64</dim>
					<dim>3</dim>
					<dim>3</dim>
				</port>
				<port id="1" precision="FP32">
					<dim>64</dim>
					<dim>1</dim>
					<dim>1</dim>
					<dim>1</dim>
				</port>
			</input>
			<output>
				<port id="2" precision="FP32">
					<dim>64</dim>
					<dim>64</dim>
					<dim>3</dim>
					<dim>3</dim>
				</port>
			</output>
		</layer>
		<layer id="280" name="/model.6/m.1/cv2/conv/Conv/WithoutBiases" type="Convolution" version="opset1">
			<data strides="1, 1" dilations="1, 1" pads_begin="1, 1" pads_end="1, 1" auto_pad="explicit" />
			<input>
				<port id="0" precision="FP32">
					<dim>-1</dim>
					<dim>64</dim>
					<dim>-1</dim>
					<dim>-1</dim>
				</port>
				<port id="1" precision="FP32">
					<dim>64</dim>
					<dim>64</dim>
					<dim>3</dim>
					<dim>3</dim>
				</port>
			</input>
			<output>
				<port id="2" precision="FP32">
					<dim>-1</dim>
					<dim>64</dim>
					<dim>-1</dim>
					<dim>-1</dim>
				</port>
			</output>
		</layer>
		<layer id="281" name="Reshape_8223972015607" type="Const" version="opset1">
			<data element_type="f32" shape="1, 64, 1, 1" offset="325096" size="256" />
			<output>
				<port id="0" precision="FP32">
					<dim>1</dim>
					<dim>64</dim>
					<dim>1</dim>
					<dim>1</dim>
				</port>
			</output>
		</layer>
		<layer id="282" name="/model.6/m.1/cv2/conv/Conv" type="Add" version="opset1">
			<data auto_broadcast="numpy" />
			<input>
				<port id="0" precision="FP32">
					<dim>-1</dim>
					<dim>64</dim>
					<dim>-1</dim>
					<dim>-1</dim>
				</port>
				<port id="1" precision="FP32">
					<dim>1</dim>
					<dim>64</dim>
					<dim>1</dim>
					<dim>1</dim>
				</port>
			</input>
			<output>
				<port id="2" precision="FP32" names="/model.6/m.1/cv2/conv/Conv_output_0">
					<dim>-1</dim>
					<dim>64</dim>
					<dim>-1</dim>
					<dim>-1</dim>
				</port>
			</output>
		</layer>
		<layer id="283" name="/model.6/m.1/cv2/act/Mul" type="Swish" version="opset4">
			<input>
				<port id="0" precision="FP32">
					<dim>-1</dim>
					<dim>64</dim>
					<dim>-1</dim>
					<dim>-1</dim>
				</port>
			</input>
			<output>
				<port id="1" precision="FP32" names="/model.6/m.1/cv2/act/Mul_output_0">
					<dim>-1</dim>
					<dim>64</dim>
					<dim>-1</dim>
					<dim>-1</dim>
				</port>
			</output>
		</layer>
		<layer id="284" name="3426343014521" type="Const" version="opset1">
			<data element_type="f32" shape="1, 1, 1, 1" offset="325352" size="4" />
			<output>
				<port id="0" precision="FP32">
					<dim>1</dim>
					<dim>1</dim>
					<dim>1</dim>
					<dim>1</dim>
				</port>
			</output>
		</layer>
		<layer id="285" name="3427343115421" type="Const" version="opset1">
			<data element_type="f32" shape="1, 1, 1, 1" offset="325356" size="4" />
			<output>
				<port id="0" precision="FP32">
					<dim>1</dim>
					<dim>1</dim>
					<dim>1</dim>
					<dim>1</dim>
				</port>
			</output>
		</layer>
		<layer id="286" name="3428343214917" type="Const" version="opset1">
			<data element_type="f32" shape="1, 1, 1, 1" offset="325352" size="4" />
			<output>
				<port id="0" precision="FP32">
					<dim>1</dim>
					<dim>1</dim>
					<dim>1</dim>
					<dim>1</dim>
				</port>
			</output>
		</layer>
		<layer id="287" name="3429343314878" type="Const" version="opset1">
			<data element_type="f32" shape="1, 1, 1, 1" offset="325356" size="4" />
			<output>
				<port id="0" precision="FP32">
					<dim>1</dim>
					<dim>1</dim>
					<dim>1</dim>
					<dim>1</dim>
				</port>
			</output>
		</layer>
		<layer id="288" name="/model.6/m.1/Add/fq_input_1" type="FakeQuantize" version="opset1">
			<data levels="256" auto_broadcast="numpy" />
			<input>
				<port id="0" precision="FP32">
					<dim>-1</dim>
					<dim>64</dim>
					<dim>-1</dim>
					<dim>-1</dim>
				</port>
				<port id="1" precision="FP32">
					<dim>1</dim>
					<dim>1</dim>
					<dim>1</dim>
					<dim>1</dim>
				</port>
				<port id="2" precision="FP32">
					<dim>1</dim>
					<dim>1</dim>
					<dim>1</dim>
					<dim>1</dim>
				</port>
				<port id="3" precision="FP32">
					<dim>1</dim>
					<dim>1</dim>
					<dim>1</dim>
					<dim>1</dim>
				</port>
				<port id="4" precision="FP32">
					<dim>1</dim>
					<dim>1</dim>
					<dim>1</dim>
					<dim>1</dim>
				</port>
			</input>
			<output>
				<port id="5" precision="FP32">
					<dim>-1</dim>
					<dim>64</dim>
					<dim>-1</dim>
					<dim>-1</dim>
				</port>
			</output>
		</layer>
		<layer id="289" name="/model.6/m.1/Add" type="Add" version="opset1">
			<data auto_broadcast="numpy" />
			<input>
				<port id="0" precision="FP32">
					<dim>-1</dim>
					<dim>64</dim>
					<dim>-1</dim>
					<dim>-1</dim>
				</port>
				<port id="1" precision="FP32">
					<dim>-1</dim>
					<dim>64</dim>
					<dim>-1</dim>
					<dim>-1</dim>
				</port>
			</input>
			<output>
				<port id="2" precision="FP32" names="/model.6/m.1/Add_output_0">
					<dim>-1</dim>
					<dim>64</dim>
					<dim>-1</dim>
					<dim>-1</dim>
				</port>
			</output>
		</layer>
		<layer id="290" name="4950495414185" type="Const" version="opset1">
			<data element_type="f32" shape="1, 1, 1, 1" offset="175808" size="4" />
			<output>
				<port id="0" precision="FP32">
					<dim>1</dim>
					<dim>1</dim>
					<dim>1</dim>
					<dim>1</dim>
				</port>
			</output>
		</layer>
		<layer id="291" name="4951495514281" type="Const" version="opset1">
			<data element_type="f32" shape="1, 1, 1, 1" offset="175812" size="4" />
			<output>
				<port id="0" precision="FP32">
					<dim>1</dim>
					<dim>1</dim>
					<dim>1</dim>
					<dim>1</dim>
				</port>
			</output>
		</layer>
		<layer id="292" name="4952495614743" type="Const" version="opset1">
			<data element_type="f32" shape="1, 1, 1, 1" offset="175808" size="4" />
			<output>
				<port id="0" precision="FP32">
					<dim>1</dim>
					<dim>1</dim>
					<dim>1</dim>
					<dim>1</dim>
				</port>
			</output>
		</layer>
		<layer id="293" name="4953495714905" type="Const" version="opset1">
			<data element_type="f32" shape="1, 1, 1, 1" offset="175812" size="4" />
			<output>
				<port id="0" precision="FP32">
					<dim>1</dim>
					<dim>1</dim>
					<dim>1</dim>
					<dim>1</dim>
				</port>
			</output>
		</layer>
		<layer id="294" name="/model.6/Concat/fq_input_3" type="FakeQuantize" version="opset1">
			<data levels="256" auto_broadcast="numpy" />
			<input>
				<port id="0" precision="FP32">
					<dim>-1</dim>
					<dim>64</dim>
					<dim>-1</dim>
					<dim>-1</dim>
				</port>
				<port id="1" precision="FP32">
					<dim>1</dim>
					<dim>1</dim>
					<dim>1</dim>
					<dim>1</dim>
				</port>
				<port id="2" precision="FP32">
					<dim>1</dim>
					<dim>1</dim>
					<dim>1</dim>
					<dim>1</dim>
				</port>
				<port id="3" precision="FP32">
					<dim>1</dim>
					<dim>1</dim>
					<dim>1</dim>
					<dim>1</dim>
				</port>
				<port id="4" precision="FP32">
					<dim>1</dim>
					<dim>1</dim>
					<dim>1</dim>
					<dim>1</dim>
				</port>
			</input>
			<output>
				<port id="5" precision="FP32">
					<dim>-1</dim>
					<dim>64</dim>
					<dim>-1</dim>
					<dim>-1</dim>
				</port>
			</output>
		</layer>
		<layer id="295" name="/model.6/Concat" type="Concat" version="opset1">
			<data axis="1" />
			<input>
				<port id="0" precision="FP32">
					<dim>-1</dim>
					<dim>64</dim>
					<dim>-1</dim>
					<dim>-1</dim>
				</port>
				<port id="1" precision="FP32">
					<dim>-1</dim>
					<dim>64</dim>
					<dim>-1</dim>
					<dim>-1</dim>
				</port>
				<port id="2" precision="FP32">
					<dim>-1</dim>
					<dim>64</dim>
					<dim>-1</dim>
					<dim>-1</dim>
				</port>
				<port id="3" precision="FP32">
					<dim>-1</dim>
					<dim>64</dim>
					<dim>-1</dim>
					<dim>-1</dim>
				</port>
			</input>
			<output>
				<port id="4" precision="FP32" names="/model.6/Concat_output_0">
					<dim>-1</dim>
					<dim>256</dim>
					<dim>-1</dim>
					<dim>-1</dim>
				</port>
			</output>
		</layer>
		<layer id="296" name="model.6.cv2.conv.weight7258350/quantized959215211" type="Const" version="opset1">
			<data element_type="i8" shape="128, 256, 1, 1" offset="325360" size="32768" />
			<output>
				<port id="0" precision="I8">
					<dim>128</dim>
					<dim>256</dim>
					<dim>1</dim>
					<dim>1</dim>
				</port>
			</output>
		</layer>
		<layer id="297" name="model.6.cv2.conv.weight7258350/quantized/to_f32" type="Convert" version="opset1">
			<data destination_type="f32" />
			<input>
				<port id="0" precision="I8">
					<dim>128</dim>
					<dim>256</dim>
					<dim>1</dim>
					<dim>1</dim>
				</port>
			</input>
			<output>
				<port id="1" precision="FP32">
					<dim>128</dim>
					<dim>256</dim>
					<dim>1</dim>
					<dim>1</dim>
				</port>
			</output>
		</layer>
		<layer id="298" name="/model.6/cv2/conv/Conv/WithoutBiases/fq_weights_1/scale960015019" type="Const" version="opset1">
			<data element_type="f32" shape="128, 1, 1, 1" offset="358128" size="512" />
			<output>
				<port id="0" precision="FP32">
					<dim>128</dim>
					<dim>1</dim>
					<dim>1</dim>
					<dim>1</dim>
				</port>
			</output>
		</layer>
		<layer id="299" name="/model.6/cv2/conv/Conv/WithoutBiases/fq_weights_1/mulpiply_by_scale" type="Multiply" version="opset1">
			<data auto_broadcast="numpy" />
			<input>
				<port id="0" precision="FP32">
					<dim>128</dim>
					<dim>256</dim>
					<dim>1</dim>
					<dim>1</dim>
				</port>
				<port id="1" precision="FP32">
					<dim>128</dim>
					<dim>1</dim>
					<dim>1</dim>
					<dim>1</dim>
				</port>
			</input>
			<output>
				<port id="2" precision="FP32">
					<dim>128</dim>
					<dim>256</dim>
					<dim>1</dim>
					<dim>1</dim>
				</port>
			</output>
		</layer>
		<layer id="300" name="/model.6/cv2/conv/Conv/WithoutBiases" type="Convolution" version="opset1">
			<data strides="1, 1" dilations="1, 1" pads_begin="0, 0" pads_end="0, 0" auto_pad="explicit" />
			<input>
				<port id="0" precision="FP32">
					<dim>-1</dim>
					<dim>256</dim>
					<dim>-1</dim>
					<dim>-1</dim>
				</port>
				<port id="1" precision="FP32">
					<dim>128</dim>
					<dim>256</dim>
					<dim>1</dim>
					<dim>1</dim>
				</port>
			</input>
			<output>
				<port id="2" precision="FP32">
					<dim>-1</dim>
					<dim>128</dim>
					<dim>-1</dim>
					<dim>-1</dim>
				</port>
			</output>
		</layer>
		<layer id="301" name="Reshape_8229172714275" type="Const" version="opset1">
			<data element_type="f32" shape="1, 128, 1, 1" offset="358640" size="512" />
			<output>
				<port id="0" precision="FP32">
					<dim>1</dim>
					<dim>128</dim>
					<dim>1</dim>
					<dim>1</dim>
				</port>
			</output>
		</layer>
		<layer id="302" name="/model.6/cv2/conv/Conv" type="Add" version="opset1">
			<data auto_broadcast="numpy" />
			<input>
				<port id="0" precision="FP32">
					<dim>-1</dim>
					<dim>128</dim>
					<dim>-1</dim>
					<dim>-1</dim>
				</port>
				<port id="1" precision="FP32">
					<dim>1</dim>
					<dim>128</dim>
					<dim>1</dim>
					<dim>1</dim>
				</port>
			</input>
			<output>
				<port id="2" precision="FP32" names="/model.6/cv2/conv/Conv_output_0">
					<dim>-1</dim>
					<dim>128</dim>
					<dim>-1</dim>
					<dim>-1</dim>
				</port>
			</output>
		</layer>
		<layer id="303" name="/model.6/cv2/act/Mul" type="Swish" version="opset4">
			<input>
				<port id="0" precision="FP32">
					<dim>-1</dim>
					<dim>128</dim>
					<dim>-1</dim>
					<dim>-1</dim>
				</port>
			</input>
			<output>
				<port id="1" precision="FP32" names="/model.6/cv2/act/Mul_output_0">
					<dim>-1</dim>
					<dim>128</dim>
					<dim>-1</dim>
					<dim>-1</dim>
				</port>
			</output>
		</layer>
		<layer id="304" name="4460446414617" type="Const" version="opset1">
			<data element_type="f32" shape="1, 1, 1, 1" offset="5440" size="4" />
			<output>
				<port id="0" precision="FP32">
					<dim>1</dim>
					<dim>1</dim>
					<dim>1</dim>
					<dim>1</dim>
				</port>
			</output>
		</layer>
		<layer id="305" name="4461446515262" type="Const" version="opset1">
			<data element_type="f32" shape="1, 1, 1, 1" offset="65444" size="4" />
			<output>
				<port id="0" precision="FP32">
					<dim>1</dim>
					<dim>1</dim>
					<dim>1</dim>
					<dim>1</dim>
				</port>
			</output>
		</layer>
		<layer id="306" name="4462446615109" type="Const" version="opset1">
			<data element_type="f32" shape="1, 1, 1, 1" offset="5440" size="4" />
			<output>
				<port id="0" precision="FP32">
					<dim>1</dim>
					<dim>1</dim>
					<dim>1</dim>
					<dim>1</dim>
				</port>
			</output>
		</layer>
		<layer id="307" name="4463446714638" type="Const" version="opset1">
			<data element_type="f32" shape="1, 1, 1, 1" offset="65444" size="4" />
			<output>
				<port id="0" precision="FP32">
					<dim>1</dim>
					<dim>1</dim>
					<dim>1</dim>
					<dim>1</dim>
				</port>
			</output>
		</layer>
		<layer id="308" name="/model.11/Concat/fq_input_1" type="FakeQuantize" version="opset1">
			<data levels="256" auto_broadcast="numpy" />
			<input>
				<port id="0" precision="FP32">
					<dim>-1</dim>
					<dim>128</dim>
					<dim>-1</dim>
					<dim>-1</dim>
				</port>
				<port id="1" precision="FP32">
					<dim>1</dim>
					<dim>1</dim>
					<dim>1</dim>
					<dim>1</dim>
				</port>
				<port id="2" precision="FP32">
					<dim>1</dim>
					<dim>1</dim>
					<dim>1</dim>
					<dim>1</dim>
				</port>
				<port id="3" precision="FP32">
					<dim>1</dim>
					<dim>1</dim>
					<dim>1</dim>
					<dim>1</dim>
				</port>
				<port id="4" precision="FP32">
					<dim>1</dim>
					<dim>1</dim>
					<dim>1</dim>
					<dim>1</dim>
				</port>
			</input>
			<output>
				<port id="5" precision="FP32">
					<dim>-1</dim>
					<dim>128</dim>
					<dim>-1</dim>
					<dim>-1</dim>
				</port>
			</output>
		</layer>
		<layer id="309" name="model.7.conv.weight7308352/quantized1022214950" type="Const" version="opset1">
			<data element_type="i8" shape="256, 128, 3, 3" offset="359152" size="294912" />
			<output>
				<port id="0" precision="I8">
					<dim>256</dim>
					<dim>128</dim>
					<dim>3</dim>
					<dim>3</dim>
				</port>
			</output>
		</layer>
		<layer id="310" name="model.7.conv.weight7308352/quantized/to_f32" type="Convert" version="opset1">
			<data destination_type="f32" />
			<input>
				<port id="0" precision="I8">
					<dim>256</dim>
					<dim>128</dim>
					<dim>3</dim>
					<dim>3</dim>
				</port>
			</input>
			<output>
				<port id="1" precision="FP32">
					<dim>256</dim>
					<dim>128</dim>
					<dim>3</dim>
					<dim>3</dim>
				</port>
			</output>
		</layer>
		<layer id="311" name="/model.7/conv/Conv/WithoutBiases/fq_weights_1/scale1023014209" type="Const" version="opset1">
			<data element_type="f32" shape="256, 1, 1, 1" offset="654064" size="1024" />
			<output>
				<port id="0" precision="FP32">
					<dim>256</dim>
					<dim>1</dim>
					<dim>1</dim>
					<dim>1</dim>
				</port>
			</output>
		</layer>
		<layer id="312" name="/model.7/conv/Conv/WithoutBiases/fq_weights_1/mulpiply_by_scale" type="Multiply" version="opset1">
			<data auto_broadcast="numpy" />
			<input>
				<port id="0" precision="FP32">
					<dim>256</dim>
					<dim>128</dim>
					<dim>3</dim>
					<dim>3</dim>
				</port>
				<port id="1" precision="FP32">
					<dim>256</dim>
					<dim>1</dim>
					<dim>1</dim>
					<dim>1</dim>
				</port>
			</input>
			<output>
				<port id="2" precision="FP32">
					<dim>256</dim>
					<dim>128</dim>
					<dim>3</dim>
					<dim>3</dim>
				</port>
			</output>
		</layer>
		<layer id="313" name="/model.7/conv/Conv/WithoutBiases" type="Convolution" version="opset1">
			<data strides="2, 2" dilations="1, 1" pads_begin="1, 1" pads_end="1, 1" auto_pad="explicit" />
			<input>
				<port id="0" precision="FP32">
					<dim>-1</dim>
					<dim>128</dim>
					<dim>-1</dim>
					<dim>-1</dim>
				</port>
				<port id="1" precision="FP32">
					<dim>256</dim>
					<dim>128</dim>
					<dim>3</dim>
					<dim>3</dim>
				</port>
			</input>
			<output>
				<port id="2" precision="FP32">
					<dim>-1</dim>
					<dim>256</dim>
					<dim>-1</dim>
					<dim>-1</dim>
				</port>
			</output>
		</layer>
		<layer id="314" name="Reshape_8234173215604" type="Const" version="opset1">
			<data element_type="f32" shape="1, 256, 1, 1" offset="655088" size="1024" />
			<output>
				<port id="0" precision="FP32">
					<dim>1</dim>
					<dim>256</dim>
					<dim>1</dim>
					<dim>1</dim>
				</port>
			</output>
		</layer>
		<layer id="315" name="/model.7/conv/Conv" type="Add" version="opset1">
			<data auto_broadcast="numpy" />
			<input>
				<port id="0" precision="FP32">
					<dim>-1</dim>
					<dim>256</dim>
					<dim>-1</dim>
					<dim>-1</dim>
				</port>
				<port id="1" precision="FP32">
					<dim>1</dim>
					<dim>256</dim>
					<dim>1</dim>
					<dim>1</dim>
				</port>
			</input>
			<output>
				<port id="2" precision="FP32" names="/model.7/conv/Conv_output_0">
					<dim>-1</dim>
					<dim>256</dim>
					<dim>-1</dim>
					<dim>-1</dim>
				</port>
			</output>
		</layer>
		<layer id="316" name="/model.7/act/Mul" type="Swish" version="opset4">
			<input>
				<port id="0" precision="FP32">
					<dim>-1</dim>
					<dim>256</dim>
					<dim>-1</dim>
					<dim>-1</dim>
				</port>
			</input>
			<output>
				<port id="1" precision="FP32" names="/model.7/act/Mul_output_0">
					<dim>-1</dim>
					<dim>256</dim>
					<dim>-1</dim>
					<dim>-1</dim>
				</port>
			</output>
		</layer>
		<layer id="317" name="2666267014977" type="Const" version="opset1">
			<data element_type="f32" shape="1, 1, 1, 1" offset="5440" size="4" />
			<output>
				<port id="0" precision="FP32">
					<dim>1</dim>
					<dim>1</dim>
					<dim>1</dim>
					<dim>1</dim>
				</port>
			</output>
		</layer>
		<layer id="318" name="2667267114116" type="Const" version="opset1">
			<data element_type="f32" shape="1, 1, 1, 1" offset="213208" size="4" />
			<output>
				<port id="0" precision="FP32">
					<dim>1</dim>
					<dim>1</dim>
					<dim>1</dim>
					<dim>1</dim>
				</port>
			</output>
		</layer>
		<layer id="319" name="2668267214971" type="Const" version="opset1">
			<data element_type="f32" shape="1, 1, 1, 1" offset="5440" size="4" />
			<output>
				<port id="0" precision="FP32">
					<dim>1</dim>
					<dim>1</dim>
					<dim>1</dim>
					<dim>1</dim>
				</port>
			</output>
		</layer>
		<layer id="320" name="2669267315118" type="Const" version="opset1">
			<data element_type="f32" shape="1, 1, 1, 1" offset="213208" size="4" />
			<output>
				<port id="0" precision="FP32">
					<dim>1</dim>
					<dim>1</dim>
					<dim>1</dim>
					<dim>1</dim>
				</port>
			</output>
		</layer>
		<layer id="321" name="/model.8/cv1/conv/Conv/WithoutBiases/fq_input_0" type="FakeQuantize" version="opset1">
			<data levels="256" auto_broadcast="numpy" />
			<input>
				<port id="0" precision="FP32">
					<dim>-1</dim>
					<dim>256</dim>
					<dim>-1</dim>
					<dim>-1</dim>
				</port>
				<port id="1" precision="FP32">
					<dim>1</dim>
					<dim>1</dim>
					<dim>1</dim>
					<dim>1</dim>
				</port>
				<port id="2" precision="FP32">
					<dim>1</dim>
					<dim>1</dim>
					<dim>1</dim>
					<dim>1</dim>
				</port>
				<port id="3" precision="FP32">
					<dim>1</dim>
					<dim>1</dim>
					<dim>1</dim>
					<dim>1</dim>
				</port>
				<port id="4" precision="FP32">
					<dim>1</dim>
					<dim>1</dim>
					<dim>1</dim>
					<dim>1</dim>
				</port>
			</input>
			<output>
				<port id="5" precision="FP32">
					<dim>-1</dim>
					<dim>256</dim>
					<dim>-1</dim>
					<dim>-1</dim>
				</port>
			</output>
		</layer>
		<layer id="322" name="model.8.cv1.conv.weight7358354/quantized944214857" type="Const" version="opset1">
			<data element_type="i8" shape="256, 256, 1, 1" offset="656112" size="65536" />
			<output>
				<port id="0" precision="I8">
					<dim>256</dim>
					<dim>256</dim>
					<dim>1</dim>
					<dim>1</dim>
				</port>
			</output>
		</layer>
		<layer id="323" name="model.8.cv1.conv.weight7358354/quantized/to_f32" type="Convert" version="opset1">
			<data destination_type="f32" />
			<input>
				<port id="0" precision="I8">
					<dim>256</dim>
					<dim>256</dim>
					<dim>1</dim>
					<dim>1</dim>
				</port>
			</input>
			<output>
				<port id="1" precision="FP32">
					<dim>256</dim>
					<dim>256</dim>
					<dim>1</dim>
					<dim>1</dim>
				</port>
			</output>
		</layer>
		<layer id="324" name="/model.8/cv1/conv/Conv/WithoutBiases/fq_weights_1/scale945015649" type="Const" version="opset1">
			<data element_type="f32" shape="256, 1, 1, 1" offset="721648" size="1024" />
			<output>
				<port id="0" precision="FP32">
					<dim>256</dim>
					<dim>1</dim>
					<dim>1</dim>
					<dim>1</dim>
				</port>
			</output>
		</layer>
		<layer id="325" name="/model.8/cv1/conv/Conv/WithoutBiases/fq_weights_1/mulpiply_by_scale" type="Multiply" version="opset1">
			<data auto_broadcast="numpy" />
			<input>
				<port id="0" precision="FP32">
					<dim>256</dim>
					<dim>256</dim>
					<dim>1</dim>
					<dim>1</dim>
				</port>
				<port id="1" precision="FP32">
					<dim>256</dim>
					<dim>1</dim>
					<dim>1</dim>
					<dim>1</dim>
				</port>
			</input>
			<output>
				<port id="2" precision="FP32">
					<dim>256</dim>
					<dim>256</dim>
					<dim>1</dim>
					<dim>1</dim>
				</port>
			</output>
		</layer>
		<layer id="326" name="/model.8/cv1/conv/Conv/WithoutBiases" type="Convolution" version="opset1">
			<data strides="1, 1" dilations="1, 1" pads_begin="0, 0" pads_end="0, 0" auto_pad="explicit" />
			<input>
				<port id="0" precision="FP32">
					<dim>-1</dim>
					<dim>256</dim>
					<dim>-1</dim>
					<dim>-1</dim>
				</port>
				<port id="1" precision="FP32">
					<dim>256</dim>
					<dim>256</dim>
					<dim>1</dim>
					<dim>1</dim>
				</port>
			</input>
			<output>
				<port id="2" precision="FP32">
					<dim>-1</dim>
					<dim>256</dim>
					<dim>-1</dim>
					<dim>-1</dim>
				</port>
			</output>
		</layer>
		<layer id="327" name="Reshape_8239173714734" type="Const" version="opset1">
			<data element_type="f32" shape="1, 256, 1, 1" offset="722672" size="1024" />
			<output>
				<port id="0" precision="FP32">
					<dim>1</dim>
					<dim>256</dim>
					<dim>1</dim>
					<dim>1</dim>
				</port>
			</output>
		</layer>
		<layer id="328" name="/model.8/cv1/conv/Conv" type="Add" version="opset1">
			<data auto_broadcast="numpy" />
			<input>
				<port id="0" precision="FP32">
					<dim>-1</dim>
					<dim>256</dim>
					<dim>-1</dim>
					<dim>-1</dim>
				</port>
				<port id="1" precision="FP32">
					<dim>1</dim>
					<dim>256</dim>
					<dim>1</dim>
					<dim>1</dim>
				</port>
			</input>
			<output>
				<port id="2" precision="FP32" names="/model.8/cv1/conv/Conv_output_0">
					<dim>-1</dim>
					<dim>256</dim>
					<dim>-1</dim>
					<dim>-1</dim>
				</port>
			</output>
		</layer>
		<layer id="329" name="/model.8/cv1/act/Mul" type="Swish" version="opset4">
			<input>
				<port id="0" precision="FP32">
					<dim>-1</dim>
					<dim>256</dim>
					<dim>-1</dim>
					<dim>-1</dim>
				</port>
			</input>
			<output>
				<port id="1" precision="FP32" names="/model.8/cv1/act/Mul_output_0">
					<dim>-1</dim>
					<dim>256</dim>
					<dim>-1</dim>
					<dim>-1</dim>
				</port>
			</output>
		</layer>
		<layer id="330" name="5030503414341" type="Const" version="opset1">
			<data element_type="f32" shape="1, 1, 1, 1" offset="723696" size="4" />
			<output>
				<port id="0" precision="FP32">
					<dim>1</dim>
					<dim>1</dim>
					<dim>1</dim>
					<dim>1</dim>
				</port>
			</output>
		</layer>
		<layer id="331" name="5031503515370" type="Const" version="opset1">
			<data element_type="f32" shape="1, 1, 1, 1" offset="723700" size="4" />
			<output>
				<port id="0" precision="FP32">
					<dim>1</dim>
					<dim>1</dim>
					<dim>1</dim>
					<dim>1</dim>
				</port>
			</output>
		</layer>
		<layer id="332" name="5032503615745" type="Const" version="opset1">
			<data element_type="f32" shape="1, 1, 1, 1" offset="723696" size="4" />
			<output>
				<port id="0" precision="FP32">
					<dim>1</dim>
					<dim>1</dim>
					<dim>1</dim>
					<dim>1</dim>
				</port>
			</output>
		</layer>
		<layer id="333" name="5033503714101" type="Const" version="opset1">
			<data element_type="f32" shape="1, 1, 1, 1" offset="723700" size="4" />
			<output>
				<port id="0" precision="FP32">
					<dim>1</dim>
					<dim>1</dim>
					<dim>1</dim>
					<dim>1</dim>
				</port>
			</output>
		</layer>
		<layer id="334" name="/model.8/Split/fq_input_0" type="FakeQuantize" version="opset1">
			<data levels="256" auto_broadcast="numpy" />
			<input>
				<port id="0" precision="FP32">
					<dim>-1</dim>
					<dim>256</dim>
					<dim>-1</dim>
					<dim>-1</dim>
				</port>
				<port id="1" precision="FP32">
					<dim>1</dim>
					<dim>1</dim>
					<dim>1</dim>
					<dim>1</dim>
				</port>
				<port id="2" precision="FP32">
					<dim>1</dim>
					<dim>1</dim>
					<dim>1</dim>
					<dim>1</dim>
				</port>
				<port id="3" precision="FP32">
					<dim>1</dim>
					<dim>1</dim>
					<dim>1</dim>
					<dim>1</dim>
				</port>
				<port id="4" precision="FP32">
					<dim>1</dim>
					<dim>1</dim>
					<dim>1</dim>
					<dim>1</dim>
				</port>
			</input>
			<output>
				<port id="5" precision="FP32">
					<dim>-1</dim>
					<dim>256</dim>
					<dim>-1</dim>
					<dim>-1</dim>
				</port>
			</output>
		</layer>
		<layer id="335" name="Constant_8242274015004" type="Const" version="opset1">
			<data element_type="i64" shape="" offset="6736" size="8" />
			<output>
				<port id="0" precision="I64" />
			</output>
		</layer>
		<layer id="336" name="Constant_8074114908" type="Const" version="opset1">
			<data element_type="i64" shape="2" offset="723704" size="16" />
			<output>
				<port id="0" precision="I64" names="onnx::Split_215">
					<dim>2</dim>
				</port>
			</output>
		</layer>
		<layer id="337" name="/model.8/Split" type="VariadicSplit" version="opset1">
			<input>
				<port id="0" precision="FP32">
					<dim>-1</dim>
					<dim>256</dim>
					<dim>-1</dim>
					<dim>-1</dim>
				</port>
				<port id="1" precision="I64" />
				<port id="2" precision="I64">
					<dim>2</dim>
				</port>
			</input>
			<output>
…
		<edge from-layer="484" from-port="2" to-layer="485" to-port="0" />
		<edge from-layer="485" from-port="1" to-layer="486" to-port="1" />
		<edge from-layer="486" from-port="3" to-layer="491" to-port="0" />
		<edge from-layer="487" from-port="0" to-layer="491" to-port="1" />
		<edge from-layer="488" from-port="0" to-layer="491" to-port="2" />
		<edge from-layer="489" from-port="0" to-layer="491" to-port="3" />
		<edge from-layer="490" from-port="0" to-layer="491" to-port="4" />
		<edge from-layer="491" from-port="5" to-layer="492" to-port="0" />
		<edge from-layer="492" from-port="2" to-layer="497" to-port="0" />
		<edge from-layer="493" from-port="0" to-layer="494" to-port="0" />
		<edge from-layer="494" from-port="1" to-layer="496" to-port="0" />
		<edge from-layer="495" from-port="0" to-layer="496" to-port="1" />
		<edge from-layer="496" from-port="2" to-layer="497" to-port="1" />
		<edge from-layer="497" from-port="2" to-layer="499" to-port="0" />
		<edge from-layer="498" from-port="0" to-layer="499" to-port="1" />
		<edge from-layer="499" from-port="2" to-layer="500" to-port="0" />
		<edge from-layer="500" from-port="1" to-layer="505" to-port="0" />
		<edge from-layer="501" from-port="0" to-layer="505" to-port="1" />
		<edge from-layer="502" from-port="0" to-layer="505" to-port="2" />
		<edge from-layer="503" from-port="0" to-layer="505" to-port="3" />
		<edge from-layer="504" from-port="0" to-layer="505" to-port="4" />
		<edge from-layer="505" from-port="5" to-layer="507" to-port="0" />
		<edge from-layer="506" from-port="0" to-layer="507" to-port="1" />
		<edge from-layer="507" from-port="4" to-layer="512" to-port="0" />
		<edge from-layer="507" from-port="3" to-layer="534" to-port="0" />
		<edge from-layer="507" from-port="4" to-layer="534" to-port="1" />
		<edge from-layer="508" from-port="0" to-layer="509" to-port="0" />
		<edge from-layer="509" from-port="1" to-layer="511" to-port="0" />
		<edge from-layer="510" from-port="0" to-layer="511" to-port="1" />
		<edge from-layer="511" from-port="2" to-layer="512" to-port="1" />
		<edge from-layer="512" from-port="2" to-layer="514" to-port="0" />
		<edge from-layer="513" from-port="0" to-layer="514" to-port="1" />
		<edge from-layer="514" from-port="2" to-layer="515" to-port="0" />
		<edge from-layer="515" from-port="1" to-layer="520" to-port="0" />
		<edge from-layer="516" from-port="0" to-layer="520" to-port="1" />
		<edge from-layer="517" from-port="0" to-layer="520" to-port="2" />
		<edge from-layer="518" from-port="0" to-layer="520" to-port="3" />
		<edge from-layer="519" from-port="0" to-layer="520" to-port="4" />
		<edge from-layer="520" from-port="5" to-layer="525" to-port="0" />
		<edge from-layer="521" from-port="0" to-layer="522" to-port="0" />
		<edge from-layer="522" from-port="1" to-layer="524" to-port="0" />
		<edge from-layer="523" from-port="0" to-layer="524" to-port="1" />
		<edge from-layer="524" from-port="2" to-layer="525" to-port="1" />
		<edge from-layer="525" from-port="2" to-layer="527" to-port="0" />
		<edge from-layer="526" from-port="0" to-layer="527" to-port="1" />
		<edge from-layer="527" from-port="2" to-layer="528" to-port="0" />
		<edge from-layer="528" from-port="1" to-layer="533" to-port="0" />
		<edge from-layer="529" from-port="0" to-layer="533" to-port="1" />
		<edge from-layer="530" from-port="0" to-layer="533" to-port="2" />
		<edge from-layer="531" from-port="0" to-layer="533" to-port="3" />
		<edge from-layer="532" from-port="0" to-layer="533" to-port="4" />
		<edge from-layer="533" from-port="5" to-layer="534" to-port="2" />
		<edge from-layer="534" from-port="3" to-layer="539" to-port="0" />
		<edge from-layer="535" from-port="0" to-layer="536" to-port="0" />
		<edge from-layer="536" from-port="1" to-layer="538" to-port="0" />
		<edge from-layer="537" from-port="0" to-layer="538" to-port="1" />
		<edge from-layer="538" from-port="2" to-layer="539" to-port="1" />
		<edge from-layer="539" from-port="2" to-layer="541" to-port="0" />
		<edge from-layer="540" from-port="0" to-layer="541" to-port="1" />
		<edge from-layer="541" from-port="2" to-layer="542" to-port="0" />
		<edge from-layer="542" from-port="1" to-layer="547" to-port="0" />
		<edge from-layer="542" from-port="1" to-layer="1014" to-port="0" />
		<edge from-layer="543" from-port="0" to-layer="547" to-port="1" />
		<edge from-layer="544" from-port="0" to-layer="547" to-port="2" />
		<edge from-layer="545" from-port="0" to-layer="547" to-port="3" />
		<edge from-layer="546" from-port="0" to-layer="547" to-port="4" />
		<edge from-layer="547" from-port="5" to-layer="660" to-port="0" />
		<edge from-layer="547" from-port="5" to-layer="585" to-port="0" />
		<edge from-layer="547" from-port="5" to-layer="552" to-port="0" />
		<edge from-layer="548" from-port="0" to-layer="549" to-port="0" />
		<edge from-layer="549" from-port="1" to-layer="551" to-port="0" />
		<edge from-layer="550" from-port="0" to-layer="551" to-port="1" />
		<edge from-layer="551" from-port="2" to-layer="552" to-port="1" />
		<edge from-layer="552" from-port="2" to-layer="554" to-port="0" />
		<edge from-layer="553" from-port="0" to-layer="554" to-port="1" />
		<edge from-layer="554" from-port="2" to-layer="555" to-port="0" />
		<edge from-layer="555" from-port="1" to-layer="560" to-port="0" />
		<edge from-layer="556" from-port="0" to-layer="560" to-port="1" />
		<edge from-layer="557" from-port="0" to-layer="560" to-port="2" />
		<edge from-layer="558" from-port="0" to-layer="560" to-port="3" />
		<edge from-layer="559" from-port="0" to-layer="560" to-port="4" />
		<edge from-layer="560" from-port="5" to-layer="565" to-port="0" />
		<edge from-layer="561" from-port="0" to-layer="562" to-port="0" />
		<edge from-layer="562" from-port="1" to-layer="564" to-port="0" />
		<edge from-layer="563" from-port="0" to-layer="564" to-port="1" />
		<edge from-layer="564" from-port="2" to-layer="565" to-port="1" />
		<edge from-layer="565" from-port="2" to-layer="567" to-port="0" />
		<edge from-layer="566" from-port="0" to-layer="567" to-port="1" />
		<edge from-layer="567" from-port="2" to-layer="568" to-port="0" />
		<edge from-layer="568" from-port="1" to-layer="573" to-port="0" />
		<edge from-layer="569" from-port="0" to-layer="573" to-port="1" />
		<edge from-layer="570" from-port="0" to-layer="573" to-port="2" />
		<edge from-layer="571" from-port="0" to-layer="573" to-port="3" />
		<edge from-layer="572" from-port="0" to-layer="573" to-port="4" />
		<edge from-layer="573" from-port="5" to-layer="578" to-port="0" />
		<edge from-layer="574" from-port="0" to-layer="575" to-port="0" />
		<edge from-layer="575" from-port="1" to-layer="577" to-port="0" />
		<edge from-layer="576" from-port="0" to-layer="577" to-port="1" />
		<edge from-layer="577" from-port="2" to-layer="578" to-port="1" />
		<edge from-layer="578" from-port="2" to-layer="580" to-port="0" />
		<edge from-layer="579" from-port="0" to-layer="580" to-port="1" />
		<edge from-layer="580" from-port="2" to-layer="614" to-port="0" />
		<edge from-layer="581" from-port="0" to-layer="582" to-port="0" />
		<edge from-layer="582" from-port="1" to-layer="584" to-port="0" />
		<edge from-layer="583" from-port="0" to-layer="584" to-port="1" />
		<edge from-layer="584" from-port="2" to-layer="585" to-port="1" />
		<edge from-layer="585" from-port="2" to-layer="587" to-port="0" />
		<edge from-layer="586" from-port="0" to-layer="587" to-port="1" />
		<edge from-layer="587" from-port="2" to-layer="588" to-port="0" />
		<edge from-layer="588" from-port="1" to-layer="593" to-port="0" />
		<edge from-layer="589" from-port="0" to-layer="593" to-port="1" />
		<edge from-layer="590" from-port="0" to-layer="593" to-port="2" />
		<edge from-layer="591" from-port="0" to-layer="593" to-port="3" />
		<edge from-layer="592" from-port="0" to-layer="593" to-port="4" />
		<edge from-layer="593" from-port="5" to-layer="598" to-port="0" />
		<edge from-layer="594" from-port="0" to-layer="595" to-port="0" />
		<edge from-layer="595" from-port="1" to-layer="597" to-port="0" />
		<edge from-layer="596" from-port="0" to-layer="597" to-port="1" />
		<edge from-layer="597" from-port="2" to-layer="598" to-port="1" />
		<edge from-layer="598" from-port="2" to-layer="600" to-port="0" />
		<edge from-layer="599" from-port="0" to-layer="600" to-port="1" />
		<edge from-layer="600" from-port="2" to-layer="601" to-port="0" />
		<edge from-layer="601" from-port="1" to-layer="606" to-port="0" />
		<edge from-layer="602" from-port="0" to-layer="606" to-port="1" />
		<edge from-layer="603" from-port="0" to-layer="606" to-port="2" />
		<edge from-layer="604" from-port="0" to-layer="606" to-port="3" />
		<edge from-layer="605" from-port="0" to-layer="606" to-port="4" />
		<edge from-layer="606" from-port="5" to-layer="611" to-port="0" />
		<edge from-layer="607" from-port="0" to-layer="608" to-port="0" />
		<edge from-layer="608" from-port="1" to-layer="610" to-port="0" />
		<edge from-layer="609" from-port="0" to-layer="610" to-port="1" />
		<edge from-layer="610" from-port="2" to-layer="611" to-port="1" />
		<edge from-layer="611" from-port="2" to-layer="613" to-port="0" />
		<edge from-layer="612" from-port="0" to-layer="613" to-port="1" />
		<edge from-layer="613" from-port="2" to-layer="614" to-port="1" />
		<edge from-layer="614" from-port="2" to-layer="615" to-port="0" />
		<edge from-layer="614" from-port="2" to-layer="1021" to-port="0" />
		<edge from-layer="615" from-port="1" to-layer="618" to-port="0" />
		<edge from-layer="615" from-port="1" to-layer="633" to-port="0" />
		<edge from-layer="616" from-port="0" to-layer="618" to-port="1" />
		<edge from-layer="617" from-port="0" to-layer="618" to-port="2" />
		<edge from-layer="618" from-port="3" to-layer="1108" to-port="1" />
		<edge from-layer="618" from-port="3" to-layer="619" to-port="0" />
		<edge from-layer="619" from-port="1" to-layer="621" to-port="1" />
		<edge from-layer="620" from-port="0" to-layer="621" to-port="2" />
		<edge from-layer="621" from-port="3" to-layer="623" to-port="0" />
		<edge from-layer="622" from-port="0" to-layer="623" to-port="1" />
		<edge from-layer="623" from-port="2" to-layer="625" to-port="0" />
		<edge from-layer="624" from-port="0" to-layer="625" to-port="1" />
		<edge from-layer="625" from-port="2" to-layer="629" to-port="0" />
		<edge from-layer="625" from-port="2" to-layer="627" to-port="0" />
		<edge from-layer="626" from-port="0" to-layer="628" to-port="0" />
		<edge from-layer="627" from-port="1" to-layer="628" to-port="1" />
		<edge from-layer="627" from-port="1" to-layer="642" to-port="1" />
		<edge from-layer="628" from-port="2" to-layer="629" to-port="1" />
		<edge from-layer="629" from-port="2" to-layer="643" to-port="0" />
		<edge from-layer="630" from-port="0" to-layer="636" to-port="0" />
		<edge from-layer="631" from-port="0" to-layer="633" to-port="1" />
		<edge from-layer="632" from-port="0" to-layer="633" to-port="2" />
		<edge from-layer="633" from-port="3" to-layer="1108" to-port="0" />
		<edge from-layer="633" from-port="3" to-layer="634" to-port="0" />
		<edge from-layer="634" from-port="1" to-layer="636" to-port="1" />
		<edge from-layer="635" from-port="0" to-layer="636" to-port="2" />
		<edge from-layer="636" from-port="3" to-layer="638" to-port="0" />
		<edge from-layer="637" from-port="0" to-layer="638" to-port="1" />
		<edge from-layer="638" from-port="2" to-layer="640" to-port="0" />
		<edge from-layer="639" from-port="0" to-layer="640" to-port="1" />
		<edge from-layer="640" from-port="2" to-layer="641" to-port="0" />
		<edge from-layer="640" from-port="2" to-layer="648" to-port="0" />
		<edge from-layer="641" from-port="1" to-layer="642" to-port="0" />
		<edge from-layer="641" from-port="1" to-layer="647" to-port="0" />
		<edge from-layer="642" from-port="2" to-layer="649" to-port="1" />
		<edge from-layer="642" from-port="2" to-layer="643" to-port="1" />
		<edge from-layer="643" from-port="2" to-layer="645" to-port="0" />
		<edge from-layer="644" from-port="0" to-layer="645" to-port="1" />
		<edge from-layer="645" from-port="2" to-layer="652" to-port="0" />
		<edge from-layer="646" from-port="0" to-layer="647" to-port="1" />
		<edge from-layer="647" from-port="2" to-layer="648" to-port="1" />
		<edge from-layer="648" from-port="2" to-layer="649" to-port="0" />
		<edge from-layer="649" from-port="2" to-layer="651" to-port="0" />
		<edge from-layer="650" from-port="0" to-layer="651" to-port="1" />
		<edge from-layer="651" from-port="2" to-layer="652" to-port="1" />
		<edge from-layer="652" from-port="2" to-layer="654" to-port="0" />
		<edge from-layer="653" from-port="0" to-layer="654" to-port="1" />
		<edge from-layer="654" from-port="2" to-layer="1009" to-port="0" />
		<edge from-layer="655" from-port="0" to-layer="798" to-port="0" />
		<edge from-layer="656" from-port="0" to-layer="657" to-port="0" />
		<edge from-layer="657" from-port="1" to-layer="659" to-port="0" />
		<edge from-layer="658" from-port="0" to-layer="659" to-port="1" />
		<edge from-layer="659" from-port="2" to-layer="660" to-port="1" />
		<edge from-layer="660" from-port="2" to-layer="662" to-port="0" />
		<edge from-layer="661" from-port="0" to-layer="662" to-port="1" />
		<edge from-layer="662" from-port="2" to-layer="663" to-port="0" />
		<edge from-layer="663" from-port="1" to-layer="668" to-port="0" />
		<edge from-layer="664" from-port="0" to-layer="668" to-port="1" />
		<edge from-layer="665" from-port="0" to-layer="668" to-port="2" />
		<edge from-layer="666" from-port="0" to-layer="668" to-port="3" />
		<edge from-layer="667" from-port="0" to-layer="668" to-port="4" />
		<edge from-layer="668" from-port="5" to-layer="669" to-port="0" />
		<edge from-layer="669" from-port="2" to-layer="674" to-port="0" />
		<edge from-layer="670" from-port="0" to-layer="671" to-port="0" />
		<edge from-layer="671" from-port="1" to-layer="673" to-port="0" />
		<edge from-layer="672" from-port="0" to-layer="673" to-port="1" />
		<edge from-layer="673" from-port="2" to-layer="674" to-port="1" />
		<edge from-layer="674" from-port="2" to-layer="676" to-port="0" />
		<edge from-layer="675" from-port="0" to-layer="676" to-port="1" />
		<edge from-layer="676" from-port="2" to-layer="677" to-port="0" />
		<edge from-layer="677" from-port="1" to-layer="682" to-port="0" />
		<edge from-layer="678" from-port="0" to-layer="682" to-port="1" />
		<edge from-layer="679" from-port="0" to-layer="682" to-port="2" />
		<edge from-layer="680" from-port="0" to-layer="682" to-port="3" />
		<edge from-layer="681" from-port="0" to-layer="682" to-port="4" />
		<edge from-layer="682" from-port="5" to-layer="684" to-port="0" />
		<edge from-layer="683" from-port="0" to-layer="684" to-port="1" />
		<edge from-layer="684" from-port="4" to-layer="689" to-port="0" />
		<edge from-layer="684" from-port="4" to-layer="711" to-port="1" />
		<edge from-layer="684" from-port="3" to-layer="711" to-port="0" />
		<edge from-layer="685" from-port="0" to-layer="686" to-port="0" />
		<edge from-layer="686" from-port="1" to-layer="688" to-port="0" />
		<edge from-layer="687" from-port="0" to-layer="688" to-port="1" />
		<edge from-layer="688" from-port="2" to-layer="689" to-port="1" />
		<edge from-layer="689" from-port="2" to-layer="691" to-port="0" />
		<edge from-layer="690" from-port="0" to-layer="691" to-port="1" />
		<edge from-layer="691" from-port="2" to-layer="692" to-port="0" />
		<edge from-layer="692" from-port="1" to-layer="697" to-port="0" />
		<edge from-layer="693" from-port="0" to-layer="697" to-port="1" />
		<edge from-layer="694" from-port="0" to-layer="697" to-port="2" />
		<edge from-layer="695" from-port="0" to-layer="697" to-port="3" />
		<edge from-layer="696" from-port="0" to-layer="697" to-port="4" />
		<edge from-layer="697" from-port="5" to-layer="702" to-port="0" />
		<edge from-layer="698" from-port="0" to-layer="699" to-port="0" />
		<edge from-layer="699" from-port="1" to-layer="701" to-port="0" />
		<edge from-layer="700" from-port="0" to-layer="701" to-port="1" />
		<edge from-layer="701" from-port="2" to-layer="702" to-port="1" />
		<edge from-layer="702" from-port="2" to-layer="704" to-port="0" />
		<edge from-layer="703" from-port="0" to-layer="704" to-port="1" />
		<edge from-layer="704" from-port="2" to-layer="705" to-port="0" />
		<edge from-layer="705" from-port="1" to-layer="710" to-port="0" />
		<edge from-layer="706" from-port="0" to-layer="710" to-port="1" />
		<edge from-layer="707" from-port="0" to-layer="710" to-port="2" />
		<edge from-layer="708" from-port="0" to-layer="710" to-port="3" />
		<edge from-layer="709" from-port="0" to-layer="710" to-port="4" />
		<edge from-layer="710" from-port="5" to-layer="711" to-port="2" />
		<edge from-layer="711" from-port="3" to-layer="716" to-port="0" />
		<edge from-layer="712" from-port="0" to-layer="713" to-port="0" />
		<edge from-layer="713" from-port="1" to-layer="715" to-port="0" />
		<edge from-layer="714" from-port="0" to-layer="715" to-port="1" />
		<edge from-layer="715" from-port="2" to-layer="716" to-port="1" />
		<edge from-layer="716" from-port="2" to-layer="718" to-port="0" />
		<edge from-layer="717" from-port="0" to-layer="718" to-port="1" />
		<edge from-layer="718" from-port="2" to-layer="719" to-port="0" />
		<edge from-layer="719" from-port="1" to-layer="724" to-port="0" />
		<edge from-layer="720" from-port="0" to-layer="724" to-port="1" />
		<edge from-layer="721" from-port="0" to-layer="724" to-port="2" />
		<edge from-layer="722" from-port="0" to-layer="724" to-port="3" />
		<edge from-layer="723" from-port="0" to-layer="724" to-port="4" />
		<edge from-layer="724" from-port="5" to-layer="762" to-port="0" />
		<edge from-layer="724" from-port="5" to-layer="837" to-port="0" />
		<edge from-layer="724" from-port="5" to-layer="729" to-port="0" />
		<edge from-layer="725" from-port="0" to-layer="726" to-port="0" />
		<edge from-layer="726" from-port="1" to-layer="728" to-port="0" />
		<edge from-layer="727" from-port="0" to-layer="728" to-port="1" />
		<edge from-layer="728" from-port="2" to-layer="729" to-port="1" />
		<edge from-layer="729" from-port="2" to-layer="731" to-port="0" />
		<edge from-layer="730" from-port="0" to-layer="731" to-port="1" />
		<edge from-layer="731" from-port="2" to-layer="732" to-port="0" />
		<edge from-layer="732" from-port="1" to-layer="737" to-port="0" />
		<edge from-layer="733" from-port="0" to-layer="737" to-port="1" />
		<edge from-layer="734" from-port="0" to-layer="737" to-port="2" />
		<edge from-layer="735" from-port="0" to-layer="737" to-port="3" />
		<edge from-layer="736" from-port="0" to-layer="737" to-port="4" />
		<edge from-layer="737" from-port="5" to-layer="742" to-port="0" />
		<edge from-layer="738" from-port="0" to-layer="739" to-port="0" />
		<edge from-layer="739" from-port="1" to-layer="741" to-port="0" />
		<edge from-layer="740" from-port="0" to-layer="741" to-port="1" />
		<edge from-layer="741" from-port="2" to-layer="742" to-port="1" />
		<edge from-layer="742" from-port="2" to-layer="744" to-port="0" />
		<edge from-layer="743" from-port="0" to-layer="744" to-port="1" />
		<edge from-layer="744" from-port="2" to-layer="745" to-port="0" />
		<edge from-layer="745" from-port="1" to-layer="750" to-port="0" />
		<edge from-layer="746" from-port="0" to-layer="750" to-port="1" />
		<edge from-layer="747" from-port="0" to-layer="750" to-port="2" />
		<edge from-layer="748" from-port="0" to-layer="750" to-port="3" />
		<edge from-layer="749" from-port="0" to-layer="750" to-port="4" />
		<edge from-layer="750" from-port="5" to-layer="755" to-port="0" />
		<edge from-layer="751" from-port="0" to-layer="752" to-port="0" />
		<edge from-layer="752" from-port="1" to-layer="754" to-port="0" />
		<edge from-layer="753" from-port="0" to-layer="754" to-port="1" />
		<edge from-layer="754" from-port="2" to-layer="755" to-port="1" />
		<edge from-layer="755" from-port="2" to-layer="757" to-port="0" />
		<edge from-layer="756" from-port="0" to-layer="757" to-port="1" />
		<edge from-layer="757" from-port="2" to-layer="791" to-port="0" />
		<edge from-layer="758" from-port="0" to-layer="759" to-port="0" />
		<edge from-layer="759" from-port="1" to-layer="761" to-port="0" />
		<edge from-layer="760" from-port="0" to-layer="761" to-port="1" />
		<edge from-layer="761" from-port="2" to-layer="762" to-port="1" />
		<edge from-layer="762" from-port="2" to-layer="764" to-port="0" />
		<edge from-layer="763" from-port="0" to-layer="764" to-port="1" />
		<edge from-layer="764" from-port="2" to-layer="765" to-port="0" />
		<edge from-layer="765" from-port="1" to-layer="770" to-port="0" />
		<edge from-layer="766" from-port="0" to-layer="770" to-port="1" />
		<edge from-layer="767" from-port="0" to-layer="770" to-port="2" />
		<edge from-layer="768" from-port="0" to-layer="770" to-port="3" />
		<edge from-layer="769" from-port="0" to-layer="770" to-port="4" />
		<edge from-layer="770" from-port="5" to-layer="775" to-port="0" />
		<edge from-layer="771" from-port="0" to-layer="772" to-port="0" />
		<edge from-layer="772" from-port="1" to-layer="774" to-port="0" />
		<edge from-layer="773" from-port="0" to-layer="774" to-port="1" />
		<edge from-layer="774" from-port="2" to-layer="775" to-port="1" />
		<edge from-layer="775" from-port="2" to-layer="777" to-port="0" />
		<edge from-layer="776" from-port="0" to-layer="777" to-port="1" />
		<edge from-layer="777" from-port="2" to-layer="778" to-port="0" />
		<edge from-layer="778" from-port="1" to-layer="783" to-port="0" />
		<edge from-layer="779" from-port="0" to-layer="783" to-port="1" />
		<edge from-layer="780" from-port="0" to-layer="783" to-port="2" />
		<edge from-layer="781" from-port="0" to-layer="783" to-port="3" />
		<edge from-layer="782" from-port="0" to-layer="783" to-port="4" />
		<edge from-layer="783" from-port="5" to-layer="788" to-port="0" />
		<edge from-layer="784" from-port="0" to-layer="785" to-port="0" />
		<edge from-layer="785" from-port="1" to-layer="787" to-port="0" />
		<edge from-layer="786" from-port="0" to-layer="787" to-port="1" />
		<edge from-layer="787" from-port="2" to-layer="788" to-port="1" />
		<edge from-layer="788" from-port="2" to-layer="790" to-port="0" />
		<edge from-layer="789" from-port="0" to-layer="790" to-port="1" />
		<edge from-layer="790" from-port="2" to-layer="791" to-port="1" />
		<edge from-layer="791" from-port="2" to-layer="792" to-port="0" />
		<edge from-layer="791" from-port="2" to-layer="1028" to-port="0" />
		<edge from-layer="792" from-port="1" to-layer="795" to-port="0" />
		<edge from-layer="792" from-port="1" to-layer="810" to-port="0" />
		<edge from-layer="793" from-port="0" to-layer="795" to-port="1" />
		<edge from-layer="794" from-port="0" to-layer="795" to-port="2" />
		<edge from-layer="795" from-port="3" to-layer="796" to-port="0" />
		<edge from-layer="795" from-port="3" to-layer="1117" to-port="1" />
		<edge from-layer="796" from-port="1" to-layer="798" to-port="1" />
		<edge from-layer="797" from-port="0" to-layer="798" to-port="2" />
		<edge from-layer="798" from-port="3" to-layer="800" to-port="0" />
		<edge from-layer="799" from-port="0" to-layer="800" to-port="1" />
		<edge from-layer="800" from-port="2" to-layer="802" to-port="0" />
		<edge from-layer="801" from-port="0" to-layer="802" to-port="1" />
		<edge from-layer="802" from-port="2" to-layer="806" to-port="0" />
		<edge from-layer="802" from-port="2" to-layer="804" to-port="0" />
		<edge from-layer="803" from-port="0" to-layer="805" to-port="0" />
		<edge from-layer="804" from-port="1" to-layer="805" to-port="1" />
		<edge from-layer="804" from-port="1" to-layer="819" to-port="1" />
		<edge from-layer="805" from-port="2" to-layer="806" to-port="1" />
		<edge from-layer="806" from-port="2" to-layer="820" to-port="0" />
		<edge from-layer="807" from-port="0" to-layer="813" to-port="0" />
		<edge from-layer="808" from-port="0" to-layer="810" to-port="1" />
		<edge from-layer="809" from-port="0" to-layer="810" to-port="2" />
		<edge from-layer="810" from-port="3" to-layer="1117" to-port="0" />
		<edge from-layer="810" from-port="3" to-layer="811" to-port="0" />
		<edge from-layer="811" from-port="1" to-layer="813" to-port="1" />
		<edge from-layer="812" from-port="0" to-layer="813" to-port="2" />
		<edge from-layer="813" from-port="3" to-layer="815" to-port="0" />
		<edge from-layer="814" from-port="0" to-layer="815" to-port="1" />
		<edge from-layer="815" from-port="2" to-layer="817" to-port="0" />
		<edge from-layer="816" from-port="0" to-layer="817" to-port="1" />
		<edge from-layer="817" from-port="2" to-layer="825" to-port="0" />
		<edge from-layer="817" from-port="2" to-layer="818" to-port="0" />
		<edge from-layer="818" from-port="1" to-layer="824" to-port="0" />
		<edge from-layer="818" from-port="1" to-layer="819" to-port="0" />
		<edge from-layer="819" from-port="2" to-layer="826" to-port="1" />
		<edge from-layer="819" from-port="2" to-layer="820" to-port="1" />
		<edge from-layer="820" from-port="2" to-layer="822" to-port="0" />
		<edge from-layer="821" from-port="0" to-layer="822" to-port="1" />
		<edge from-layer="822" from-port="2" to-layer="829" to-port="0" />
		<edge from-layer="823" from-port="0" to-layer="824" to-port="1" />
		<edge from-layer="824" from-port="2" to-layer="825" to-port="1" />
		<edge from-layer="825" from-port="2" to-layer="826" to-port="0" />
		<edge from-layer="826" from-port="2" to-layer="828" to-port="0" />
		<edge from-layer="827" from-port="0" to-layer="828" to-port="1" />
		<edge from-layer="828" from-port="2" to-layer="829" to-port="1" />
		<edge from-layer="829" from-port="2" to-layer="831" to-port="0" />
		<edge from-layer="830" from-port="0" to-layer="831" to-port="1" />
		<edge from-layer="831" from-port="2" to-layer="1009" to-port="1" />
		<edge from-layer="832" from-port="0" to-layer="975" to-port="0" />
		<edge from-layer="833" from-port="0" to-layer="834" to-port="0" />
		<edge from-layer="834" from-port="1" to-layer="836" to-port="0" />
		<edge from-layer="835" from-port="0" to-layer="836" to-port="1" />
		<edge from-layer="836" from-port="2" to-layer="837" to-port="1" />
		<edge from-layer="837" from-port="2" to-layer="839" to-port="0" />
		<edge from-layer="838" from-port="0" to-layer="839" to-port="1" />
		<edge from-layer="839" from-port="2" to-layer="840" to-port="0" />
		<edge from-layer="840" from-port="1" to-layer="845" to-port="0" />
		<edge from-layer="841" from-port="0" to-layer="845" to-port="1" />
		<edge from-layer="842" from-port="0" to-layer="845" to-port="2" />
		<edge from-layer="843" from-port="0" to-layer="845" to-port="3" />
		<edge from-layer="844" from-port="0" to-layer="845" to-port="4" />
		<edge from-layer="845" from-port="5" to-layer="846" to-port="0" />
		<edge from-layer="846" from-port="2" to-layer="851" to-port="0" />
		<edge from-layer="847" from-port="0" to-layer="848" to-port="0" />
		<edge from-layer="848" from-port="1" to-layer="850" to-port="0" />
		<edge from-layer="849" from-port="0" to-layer="850" to-port="1" />
		<edge from-layer="850" from-port="2" to-layer="851" to-port="1" />
		<edge from-layer="851" from-port="2" to-layer="853" to-port="0" />
		<edge from-layer="852" from-port="0" to-layer="853" to-port="1" />
		<edge from-layer="853" from-port="2" to-layer="854" to-port="0" />
		<edge from-layer="854" from-port="1" to-layer="859" to-port="0" />
		<edge from-layer="855" from-port="0" to-layer="859" to-port="1" />
		<edge from-layer="856" from-port="0" to-layer="859" to-port="2" />
		<edge from-layer="857" from-port="0" to-layer="859" to-port="3" />
		<edge from-layer="858" from-port="0" to-layer="859" to-port="4" />
		<edge from-layer="859" from-port="5" to-layer="861" to-port="0" />
		<edge from-layer="860" from-port="0" to-layer="861" to-port="1" />
		<edge from-layer="861" from-port="4" to-layer="866" to-port="0" />
		<edge from-layer="861" from-port="4" to-layer="888" to-port="1" />
		<edge from-layer="861" from-port="3" to-layer="888" to-port="0" />
		<edge from-layer="862" from-port="0" to-layer="863" to-port="0" />
		<edge from-layer="863" from-port="1" to-layer="865" to-port="0" />
		<edge from-layer="864" from-port="0" to-layer="865" to-port="1" />
		<edge from-layer="865" from-port="2" to-layer="866" to-port="1" />
		<edge from-layer="866" from-port="2" to-layer="868" to-port="0" />
		<edge from-layer="867" from-port="0" to-layer="868" to-port="1" />
		<edge from-layer="868" from-port="2" to-layer="869" to-port="0" />
		<edge from-layer="869" from-port="1" to-layer="874" to-port="0" />
		<edge from-layer="870" from-port="0" to-layer="874" to-port="1" />
		<edge from-layer="871" from-port="0" to-layer="874" to-port="2" />
		<edge from-layer="872" from-port="0" to-layer="874" to-port="3" />
		<edge from-layer="873" from-port="0" to-layer="874" to-port="4" />
		<edge from-layer="874" from-port="5" to-layer="879" to-port="0" />
		<edge from-layer="875" from-port="0" to-layer="876" to-port="0" />
		<edge from-layer="876" from-port="1" to-layer="878" to-port="0" />
		<edge from-layer="877" from-port="0" to-layer="878" to-port="1" />
		<edge from-layer="878" from-port="2" to-layer="879" to-port="1" />
		<edge from-layer="879" from-port="2" to-layer="881" to-port="0" />
		<edge from-layer="880" from-port="0" to-layer="881" to-port="1" />
		<edge from-layer="881" from-port="2" to-layer="882" to-port="0" />
		<edge from-layer="882" from-port="1" to-layer="887" to-port="0" />
		<edge from-layer="883" from-port="0" to-layer="887" to-port="1" />
		<edge from-layer="884" from-port="0" to-layer="887" to-port="2" />
		<edge from-layer="885" from-port="0" to-layer="887" to-port="3" />
		<edge from-layer="886" from-port="0" to-layer="887" to-port="4" />
		<edge from-layer="887" from-port="5" to-layer="888" to-port="2" />
		<edge from-layer="888" from-port="3" to-layer="893" to-port="0" />
		<edge from-layer="889" from-port="0" to-layer="890" to-port="0" />
		<edge from-layer="890" from-port="1" to-layer="892" to-port="0" />
		<edge from-layer="891" from-port="0" to-layer="892" to-port="1" />
		<edge from-layer="892" from-port="2" to-layer="893" to-port="1" />
		<edge from-layer="893" from-port="2" to-layer="895" to-port="0" />
		<edge from-layer="894" from-port="0" to-layer="895" to-port="1" />
		<edge from-layer="895" from-port="2" to-layer="896" to-port="0" />
		<edge from-layer="896" from-port="1" to-layer="901" to-port="0" />
		<edge from-layer="897" from-port="0" to-layer="901" to-port="1" />
		<edge from-layer="898" from-port="0" to-layer="901" to-port="2" />
		<edge from-layer="899" from-port="0" to-layer="901" to-port="3" />
		<edge from-layer="900" from-port="0" to-layer="901" to-port="4" />
		<edge from-layer="901" from-port="5" to-layer="939" to-port="0" />
		<edge from-layer="901" from-port="5" to-layer="906" to-port="0" />
		<edge from-layer="902" from-port="0" to-layer="903" to-port="0" />
		<edge from-layer="903" from-port="1" to-layer="905" to-port="0" />
		<edge from-layer="904" from-port="0" to-layer="905" to-port="1" />
		<edge from-layer="905" from-port="2" to-layer="906" to-port="1" />
		<edge from-layer="906" from-port="2" to-layer="908" to-port="0" />
		<edge from-layer="907" from-port="0" to-layer="908" to-port="1" />
		<edge from-layer="908" from-port="2" to-layer="909" to-port="0" />
		<edge from-layer="909" from-port="1" to-layer="914" to-port="0" />
		<edge from-layer="910" from-port="0" to-layer="914" to-port="1" />
		<edge from-layer="911" from-port="0" to-layer="914" to-port="2" />
		<edge from-layer="912" from-port="0" to-layer="914" to-port="3" />
		<edge from-layer="913" from-port="0" to-layer="914" to-port="4" />
		<edge from-layer="914" from-port="5" to-layer="919" to-port="0" />
		<edge from-layer="915" from-port="0" to-layer="916" to-port="0" />
		<edge from-layer="916" from-port="1" to-layer="918" to-port="0" />
		<edge from-layer="917" from-port="0" to-layer="918" to-port="1" />
		<edge from-layer="918" from-port="2" to-layer="919" to-port="1" />
		<edge from-layer="919" from-port="2" to-layer="921" to-port="0" />
		<edge from-layer="920" from-port="0" to-layer="921" to-port="1" />
		<edge from-layer="921" from-port="2" to-layer="922" to-port="0" />
		<edge from-layer="922" from-port="1" to-layer="927" to-port="0" />
		<edge from-layer="923" from-port="0" to-layer="927" to-port="1" />
		<edge from-layer="924" from-port="0" to-layer="927" to-port="2" />
		<edge from-layer="925" from-port="0" to-layer="927" to-port="3" />
		<edge from-layer="926" from-port="0" to-layer="927" to-port="4" />
		<edge from-layer="927" from-port="5" to-layer="932" to-port="0" />
		<edge from-layer="928" from-port="0" to-layer="929" to-port="0" />
		<edge from-layer="929" from-port="1" to-layer="931" to-port="0" />
		<edge from-layer="930" from-port="0" to-layer="931" to-port="1" />
		<edge from-layer="931" from-port="2" to-layer="932" to-port="1" />
		<edge from-layer="932" from-port="2" to-layer="934" to-port="0" />
		<edge from-layer="933" from-port="0" to-layer="934" to-port="1" />
		<edge from-layer="934" from-port="2" to-layer="968" to-port="0" />
		<edge from-layer="935" from-port="0" to-layer="936" to-port="0" />
		<edge from-layer="936" from-port="1" to-layer="938" to-port="0" />
		<edge from-layer="937" from-port="0" to-layer="938" to-port="1" />
		<edge from-layer="938" from-port="2" to-layer="939" to-port="1" />
		<edge from-layer="939" from-port="2" to-layer="941" to-port="0" />
		<edge from-layer="940" from-port="0" to-layer="941" to-port="1" />
		<edge from-layer="941" from-port="2" to-layer="942" to-port="0" />
		<edge from-layer="942" from-port="1" to-layer="947" to-port="0" />
		<edge from-layer="943" from-port="0" to-layer="947" to-port="1" />
		<edge from-layer="944" from-port="0" to-layer="947" to-port="2" />
		<edge from-layer="945" from-port="0" to-layer="947" to-port="3" />
		<edge from-layer="946" from-port="0" to-layer="947" to-port="4" />
		<edge from-layer="947" from-port="5" to-layer="952" to-port="0" />
		<edge from-layer="948" from-port="0" to-layer="949" to-port="0" />
		<edge from-layer="949" from-port="1" to-layer="951" to-port="0" />
		<edge from-layer="950" from-port="0" to-layer="951" to-port="1" />
		<edge from-layer="951" from-port="2" to-layer="952" to-port="1" />
		<edge from-layer="952" from-port="2" to-layer="954" to-port="0" />
		<edge from-layer="953" from-port="0" to-layer="954" to-port="1" />
		<edge from-layer="954" from-port="2" to-layer="955" to-port="0" />
		<edge from-layer="955" from-port="1" to-layer="960" to-port="0" />
		<edge from-layer="956" from-port="0" to-layer="960" to-port="1" />
		<edge from-layer="957" from-port="0" to-layer="960" to-port="2" />
		<edge from-layer="958" from-port="0" to-layer="960" to-port="3" />
		<edge from-layer="959" from-port="0" to-layer="960" to-port="4" />
		<edge from-layer="960" from-port="5" to-layer="965" to-port="0" />
		<edge from-layer="961" from-port="0" to-layer="962" to-port="0" />
		<edge from-layer="962" from-port="1" to-layer="964" to-port="0" />
		<edge from-layer="963" from-port="0" to-layer="964" to-port="1" />
		<edge from-layer="964" from-port="2" to-layer="965" to-port="1" />
		<edge from-layer="965" from-port="2" to-layer="967" to-port="0" />
		<edge from-layer="966" from-port="0" to-layer="967" to-port="1" />
		<edge from-layer="967" from-port="2" to-layer="968" to-port="1" />
		<edge from-layer="968" from-port="2" to-layer="969" to-port="0" />
		<edge from-layer="968" from-port="2" to-layer="1035" to-port="0" />
		<edge from-layer="969" from-port="1" to-layer="972" to-port="0" />
		<edge from-layer="969" from-port="1" to-layer="987" to-port="0" />
		<edge from-layer="970" from-port="0" to-layer="972" to-port="1" />
		<edge from-layer="971" from-port="0" to-layer="972" to-port="2" />
		<edge from-layer="972" from-port="3" to-layer="973" to-port="0" />
		<edge from-layer="972" from-port="3" to-layer="1126" to-port="1" />
		<edge from-layer="973" from-port="1" to-layer="975" to-port="1" />
		<edge from-layer="974" from-port="0" to-layer="975" to-port="2" />
		<edge from-layer="975" from-port="3" to-layer="977" to-port="0" />
		<edge from-layer="976" from-port="0" to-layer="977" to-port="1" />
		<edge from-layer="977" from-port="2" to-layer="979" to-port="0" />
		<edge from-layer="978" from-port="0" to-layer="979" to-port="1" />
		<edge from-layer="979" from-port="2" to-layer="983" to-port="0" />
		<edge from-layer="979" from-port="2" to-layer="981" to-port="0" />
		<edge from-layer="980" from-port="0" to-layer="982" to-port="0" />
		<edge from-layer="981" from-port="1" to-layer="996" to-port="1" />
		<edge from-layer="981" from-port="1" to-layer="982" to-port="1" />
		<edge from-layer="982" from-port="2" to-layer="983" to-port="1" />
		<edge from-layer="983" from-port="2" to-layer="997" to-port="0" />
		<edge from-layer="984" from-port="0" to-layer="990" to-port="0" />
		<edge from-layer="985" from-port="0" to-layer="987" to-port="1" />
		<edge from-layer="986" from-port="0" to-layer="987" to-port="2" />
		<edge from-layer="987" from-port="3" to-layer="988" to-port="0" />
		<edge from-layer="987" from-port="3" to-layer="1126" to-port="0" />
		<edge from-layer="988" from-port="1" to-layer="990" to-port="1" />
		<edge from-layer="989" from-port="0" to-layer="990" to-port="2" />
		<edge from-layer="990" from-port="3" to-layer="992" to-port="0" />
		<edge from-layer="991" from-port="0" to-layer="992" to-port="1" />
		<edge from-layer="992" from-port="2" to-layer="994" to-port="0" />
		<edge from-layer="993" from-port="0" to-layer="994" to-port="1" />
		<edge from-layer="994" from-port="2" to-layer="1002" to-port="0" />
		<edge from-layer="994" from-port="2" to-layer="995" to-port="0" />
		<edge from-layer="995" from-port="1" to-layer="996" to-port="0" />
		<edge from-layer="995" from-port="1" to-layer="1001" to-port="0" />
		<edge from-layer="996" from-port="2" to-layer="1003" to-port="1" />
		<edge from-layer="996" from-port="2" to-layer="997" to-port="1" />
		<edge from-layer="997" from-port="2" to-layer="999" to-port="0" />
		<edge from-layer="998" from-port="0" to-layer="999" to-port="1" />
		<edge from-layer="999" from-port="2" to-layer="1006" to-port="0" />
		<edge from-layer="1000" from-port="0" to-layer="1001" to-port="1" />
		<edge from-layer="1001" from-port="2" to-layer="1002" to-port="1" />
		<edge from-layer="1002" from-port="2" to-layer="1003" to-port="0" />
		<edge from-layer="1003" from-port="2" to-layer="1005" to-port="0" />
		<edge from-layer="1004" from-port="0" to-layer="1005" to-port="1" />
		<edge from-layer="1005" from-port="2" to-layer="1006" to-port="1" />
		<edge from-layer="1006" from-port="2" to-layer="1008" to-port="0" />
		<edge from-layer="1007" from-port="0" to-layer="1008" to-port="1" />
		<edge from-layer="1008" from-port="2" to-layer="1009" to-port="2" />
		<edge from-layer="1009" from-port="3" to-layer="1011" to-port="0" />
		<edge from-layer="1010" from-port="0" to-layer="1011" to-port="1" />
		<edge from-layer="1011" from-port="2" to-layer="1013" to-port="0" />
		<edge from-layer="1012" from-port="0" to-layer="1013" to-port="1" />
		<edge from-layer="1013" from-port="2" to-layer="1080" to-port="0" />
		<edge from-layer="1013" from-port="2" to-layer="1096" to-port="0" />
		<edge from-layer="1014" from-port="1" to-layer="1024" to-port="0" />
		<edge from-layer="1014" from-port="1" to-layer="1017" to-port="0" />
		<edge from-layer="1014" from-port="1" to-layer="1031" to-port="0" />
		<edge from-layer="1015" from-port="0" to-layer="1017" to-port="1" />
		<edge from-layer="1016" from-port="0" to-layer="1017" to-port="2" />
		<edge from-layer="1017" from-port="3" to-layer="1020" to-port="0" />
		<edge from-layer="1018" from-port="0" to-layer="1020" to-port="1" />
		<edge from-layer="1019" from-port="0" to-layer="1020" to-port="2" />
		<edge from-layer="1020" from-port="3" to-layer="1021" to-port="1" />
		<edge from-layer="1021" from-port="2" to-layer="1036" to-port="0" />
		<edge from-layer="1022" from-port="0" to-layer="1024" to-port="1" />
		<edge from-layer="1023" from-port="0" to-layer="1024" to-port="2" />
		<edge from-layer="1024" from-port="3" to-layer="1027" to-port="0" />
		<edge from-layer="1025" from-port="0" to-layer="1027" to-port="1" />
		<edge from-layer="1026" from-port="0" to-layer="1027" to-port="2" />
		<edge from-layer="1027" from-port="3" to-layer="1028" to-port="1" />
		<edge from-layer="1028" from-port="2" to-layer="1036" to-port="1" />
		<edge from-layer="1029" from-port="0" to-layer="1031" to-port="1" />
		<edge from-layer="1030" from-port="0" to-layer="1031" to-port="2" />
		<edge from-layer="1031" from-port="3" to-layer="1034" to-port="0" />
		<edge from-layer="1032" from-port="0" to-layer="1034" to-port="1" />
		<edge from-layer="1033" from-port="0" to-layer="1034" to-port="2" />
		<edge from-layer="1034" from-port="3" to-layer="1035" to-port="1" />
		<edge from-layer="1035" from-port="2" to-layer="1036" to-port="2" />
		<edge from-layer="1036" from-port="3" to-layer="1039" to-port="0" />
		<edge from-layer="1037" from-port="0" to-layer="1039" to-port="1" />
		<edge from-layer="1038" from-port="0" to-layer="1039" to-port="2" />
		<edge from-layer="1039" from-port="3" to-layer="1048" to-port="0" />
		<edge from-layer="1039" from-port="4" to-layer="1138" to-port="0" />
		<edge from-layer="1039" from-port="3" to-layer="1043" to-port="0" />
		<edge from-layer="1040" from-port="0" to-layer="1047" to-port="0" />
		<edge from-layer="1041" from-port="0" to-layer="1047" to-port="1" />
		<edge from-layer="1042" from-port="0" to-layer="1047" to-port="2" />
		<edge from-layer="1043" from-port="1" to-layer="1046" to-port="0" />
		<edge from-layer="1043" from-port="1" to-layer="1058" to-port="0" />
		<edge from-layer="1043" from-port="1" to-layer="1062" to-port="0" />
		<edge from-layer="1044" from-port="0" to-layer="1046" to-port="1" />
		<edge from-layer="1045" from-port="0" to-layer="1046" to-port="2" />
		<edge from-layer="1046" from-port="3" to-layer="1047" to-port="3" />
		<edge from-layer="1047" from-port="4" to-layer="1048" to-port="1" />
		<edge from-layer="1048" from-port="2" to-layer="1050" to-port="0" />
		<edge from-layer="1049" from-port="0" to-layer="1050" to-port="1" />
		<edge from-layer="1050" from-port="2" to-layer="1051" to-port="0" />
		<edge from-layer="1051" from-port="1" to-layer="1053" to-port="0" />
		<edge from-layer="1052" from-port="0" to-layer="1053" to-port="1" />
		<edge from-layer="1053" from-port="2" to-layer="1055" to-port="0" />
		<edge from-layer="1054" from-port="0" to-layer="1055" to-port="1" />
		<edge from-layer="1055" from-port="2" to-layer="1064" to-port="0" />
		<edge from-layer="1056" from-port="0" to-layer="1058" to-port="1" />
		<edge from-layer="1057" from-port="0" to-layer="1058" to-port="2" />
		<edge from-layer="1058" from-port="3" to-layer="1063" to-port="0" />
		<edge from-layer="1059" from-port="0" to-layer="1063" to-port="1" />
		<edge from-layer="1060" from-port="0" to-layer="1062" to-port="1" />
		<edge from-layer="1061" from-port="0" to-layer="1062" to-port="2" />
		<edge from-layer="1062" from-port="3" to-layer="1063" to-port="2" />
		<edge from-layer="1063" from-port="3" to-layer="1064" to-port="1" />
		<edge from-layer="1064" from-port="2" to-layer="1095" to-port="0" />
		<edge from-layer="1064" from-port="2" to-layer="1079" to-port="0" />
		<edge from-layer="1064" from-port="2" to-layer="1068" to-port="0" />
		<edge from-layer="1065" from-port="0" to-layer="1079" to-port="1" />
		<edge from-layer="1066" from-port="0" to-layer="1077" to-port="0" />
		<edge from-layer="1067" from-port="0" to-layer="1077" to-port="1" />
		<edge from-layer="1068" from-port="1" to-layer="1071" to-port="0" />
		<edge from-layer="1069" from-port="0" to-layer="1071" to-port="1" />
		<edge from-layer="1070" from-port="0" to-layer="1071" to-port="2" />
		<edge from-layer="1071" from-port="3" to-layer="1073" to-port="0" />
		<edge from-layer="1072" from-port="0" to-layer="1073" to-port="1" />
		<edge from-layer="1073" from-port="2" to-layer="1075" to-port="0" />
		<edge from-layer="1074" from-port="0" to-layer="1075" to-port="1" />
		<edge from-layer="1075" from-port="2" to-layer="1089" to-port="2" />
		<edge from-layer="1075" from-port="2" to-layer="1092" to-port="0" />
		<edge from-layer="1075" from-port="2" to-layer="1077" to-port="2" />
		<edge from-layer="1076" from-port="0" to-layer="1077" to-port="3" />
		<edge from-layer="1077" from-port="4" to-layer="1079" to-port="2" />
		<edge from-layer="1078" from-port="0" to-layer="1079" to-port="3" />
		<edge from-layer="1079" from-port="4" to-layer="1080" to-port="1" />
		<edge from-layer="1080" from-port="2" to-layer="1085" to-port="0" />
		<edge from-layer="1080" from-port="2" to-layer="1105" to-port="1" />
		<edge from-layer="1081" from-port="0" to-layer="1085" to-port="1" />
		<edge from-layer="1082" from-port="0" to-layer="1085" to-port="2" />
		<edge from-layer="1083" from-port="0" to-layer="1085" to-port="3" />
		<edge from-layer="1084" from-port="0" to-layer="1085" to-port="4" />
		<edge from-layer="1085" from-port="5" to-layer="1102" to-port="0" />
		<edge from-layer="1086" from-port="0" to-layer="1089" to-port="0" />
		<edge from-layer="1087" from-port="0" to-layer="1089" to-port="1" />
		<edge from-layer="1087" from-port="0" to-layer="1093" to-port="1" />
		<edge from-layer="1088" from-port="0" to-layer="1093" to-port="3" />
		<edge from-layer="1088" from-port="0" to-layer="1089" to-port="3" />
		<edge from-layer="1089" from-port="4" to-layer="1095" to-port="1" />
		<edge from-layer="1090" from-port="0" to-layer="1093" to-port="0" />
		<edge from-layer="1091" from-port="0" to-layer="1092" to-port="1" />
		<edge from-layer="1092" from-port="2" to-layer="1093" to-port="2" />
		<edge from-layer="1093" from-port="4" to-layer="1095" to-port="2" />
		<edge from-layer="1094" from-port="0" to-layer="1095" to-port="3" />
		<edge from-layer="1095" from-port="4" to-layer="1096" to-port="1" />
		<edge from-layer="1096" from-port="2" to-layer="1105" to-port="0" />
		<edge from-layer="1096" from-port="2" to-layer="1101" to-port="0" />
		<edge from-layer="1097" from-port="0" to-layer="1101" to-port="1" />
		<edge from-layer="1098" from-port="0" to-layer="1101" to-port="2" />
		<edge from-layer="1099" from-port="0" to-layer="1101" to-port="3" />
		<edge from-layer="1100" from-port="0" to-layer="1101" to-port="4" />
		<edge from-layer="1101" from-port="5" to-layer="1102" to-port="1" />
		<edge from-layer="1102" from-port="2" to-layer="1104" to-port="0" />
		<edge from-layer="1103" from-port="0" to-layer="1104" to-port="1" />
		<edge from-layer="1104" from-port="2" to-layer="1106" to-port="0" />
		<edge from-layer="1105" from-port="2" to-layer="1106" to-port="1" />
		<edge from-layer="1106" from-port="2" to-layer="1137" to-port="0" />
		<edge from-layer="1107" from-port="0" to-layer="1113" to-port="0" />
		<edge from-layer="1108" from-port="2" to-layer="1110" to-port="0" />
		<edge from-layer="1109" from-port="0" to-layer="1110" to-port="1" />
		<edge from-layer="1110" from-port="2" to-layer="1112" to-port="0" />
		<edge from-layer="1111" from-port="0" to-layer="1112" to-port="1" />
		<edge from-layer="1112" from-port="2" to-layer="1113" to-port="1" />
		<edge from-layer="1113" from-port="2" to-layer="1115" to-port="0" />
		<edge from-layer="1114" from-port="0" to-layer="1115" to-port="1" />
		<edge from-layer="1115" from-port="2" to-layer="1134" to-port="0" />
		<edge from-layer="1116" from-port="0" to-layer="1122" to-port="0" />
		<edge from-layer="1117" from-port="2" to-layer="1119" to-port="0" />
		<edge from-layer="1118" from-port="0" to-layer="1119" to-port="1" />
		<edge from-layer="1119" from-port="2" to-layer="1121" to-port="0" />
		<edge from-layer="1120" from-port="0" to-layer="1121" to-port="1" />
		<edge from-layer="1121" from-port="2" to-layer="1122" to-port="1" />
		<edge from-layer="1122" from-port="2" to-layer="1124" to-port="0" />
		<edge from-layer="1123" from-port="0" to-layer="1124" to-port="1" />
		<edge from-layer="1124" from-port="2" to-layer="1134" to-port="1" />
		<edge from-layer="1125" from-port="0" to-layer="1131" to-port="0" />
		<edge from-layer="1126" from-port="2" to-layer="1128" to-port="0" />
		<edge from-layer="1127" from-port="0" to-layer="1128" to-port="1" />
		<edge from-layer="1128" from-port="2" to-layer="1130" to-port="0" />
		<edge from-layer="1129" from-port="0" to-layer="1130" to-port="1" />
		<edge from-layer="1130" from-port="2" to-layer="1131" to-port="1" />
		<edge from-layer="1131" from-port="2" to-layer="1133" to-port="0" />
		<edge from-layer="1132" from-port="0" to-layer="1133" to-port="1" />
		<edge from-layer="1133" from-port="2" to-layer="1134" to-port="2" />
		<edge from-layer="1134" from-port="3" to-layer="1136" to-port="0" />
		<edge from-layer="1135" from-port="0" to-layer="1136" to-port="1" />
		<edge from-layer="1136" from-port="2" to-layer="1137" to-port="1" />
		<edge from-layer="1137" from-port="2" to-layer="1139" to-port="0" />
		<edge from-layer="1138" from-port="1" to-layer="1139" to-port="1" />
		<edge from-layer="1139" from-port="2" to-layer="1140" to-port="0" />
	</edges>
	<rt_info>
		<MO_version value="2022.3.0-9052-9752fafe8eb-releases/2022/3" />
		<Runtime_version value="2022.3.0-9052-9752fafe8eb-releases/2022/3" />
		<conversion_parameters>
			<framework value="onnx" />
			<input_model value="DIR/v8n.onnx" />
			<model_name value="v8n" />
		</conversion_parameters>
		<framework>
			<author value="Ultralytics" />
			<description value="Ultralytics v8n model trained on dataset.yaml" />
			<license value="GPL-3.0 https://ultralytics.com/license" />
			<names value="{0: 'glider', 1: 'koala'}" />
			<stride value="32" />
			<version value="8.0.42" />
		</framework>
		<legacy_frontend value="False" />
		<quantization_parameters />
	</rt_info>
</net>
